data/autoencoder_weights.pth (torch, 854038 bytes, 15 tensors)

encoder.encoder.0.weight f4 [16, 1, 3, 3]
0	0x3dc0e81a	0.0941927
1	0x3d90bfcb	0.070678316
2	0xbdb897a5	-0.09013299
3	0x3e5b8721	0.21438266
4	0x3f0f88ca	0.560681
5	0xbeef9d6f	-0.467998
6	0xbd1108bd	-0.035408724
7	0x3eb0002e	0.34375137
8	0xbed61fbf	-0.41821095
9	0xbce10eb4	-0.027472831
10	0xbe55b773	-0.20870762
11	0x3e1078af	0.14108537
12	0xbcef680b	-0.029224416
13	0x3e158666	0.1460205
14	0x3e12143f	0.14265536
15	0xbd944d6e	-0.07241331
16	0xbd0b84fa	-0.034062363
17	0x3e7caffc	0.24676508
18	0xbe47ccbb	-0.19511692
19	0x3e6ccd1a	0.23125115
20	0xbe88f72e	-0.26751083
21	0xbe82e24f	-0.25563285
22	0x3dc52524	0.09626225
23	0xbe34c0f4	-0.17651731
24	0x3e5f74a6	0.21821842
25	0x3d8ae717	0.06782358
26	0x3e17beb8	0.14818847
27	0xbe323176	-0.1740168
28	0xbe63ff09	-0.22265257
29	0x3b5c4b4c	0.0033614216
30	0xbeb573f8	-0.3544004
31	0xbde8799d	-0.11351321
32	0x3eab4f25	0.3345882
33	0xbde810e9	-0.1133135
34	0x3eabe8ec	0.33576143
35	0x3e7c8d21	0.24663211
36	0xbdfaeb92	-0.12251963
37	0x3d01708d	0.031601477
38	0xbe1158bf	-0.1419401
39	0x3ea29fd8	0.31762576
40	0x3ec3d6d0	0.38249826
41	0x3e814e9e	0.25255293
42	0xbe2c600e	-0.16833517
43	0xbef8170c	-0.48455083
44	0xbe69e136	-0.22839817
45	0xbd22ed75	-0.039777238
46	0xbd62e1d2	-0.05539114
47	0xbd96f029	-0.07370026
48	0x3d71bac0	0.05901599
49	0x3df92c80	0.12166691
50	0xbd8b3a69	-0.0679825
51	0x3dd6c03e	0.10485886
52	0x3e2388de	0.1597018
53	0x3e38555e	0.18001315
54	0xbddfc1d8	-0.10925645
55	0x3e801f17	0.2502372
56	0xbe95a1c3	-0.29224977
57	0xbe8199d3	-0.2531267
58	0x3eeca05b	0.46216092
59	0xbc2ef989	-0.010679611
60	0xbf0c4338	-0.5479007
61	0x3e8169ef	0.25276133
62	0x3d2c5814	0.042076185
63	0xbd4ee1db	-0.05050836
64	0x3d9401bb	0.072268926
65	0x3e9f7c28	0.3114941
66	0xbe98a9ff	-0.29817197
67	0xbe3af2b6	-0.1825665
68	0x3eb24abc	0.34822643
69	0xbe58feb6	-0.21190915
70	0xbdef5c39	-0.11687512
71	0x3e2687b7	0.16262709
72	0xbe947d9d	-0.29002085
73	0xbe7ae908	-0.24502957
74	0xbe9242b8	-0.28566527
75	0x3e336f0c	0.1752283
76	0x3ea120e7	0.31470415
77	0x3eac0a2b	0.33601508
78	0x3e0ac9bb	0.13553517
79	0x3e1be518	0.15224111
80	0xbcd0109c	-0.025398545
81	0x3e3e78f3	0.18600826
82	0x3eb9601e	0.36206144
83	0x3e8b3e18	0.2719581
84	0xbdbec8ca	-0.09315641
85	0x3dfcc6fa	0.12342639
86	0xbca1a10e	-0.019730117
87	0xbd6618e6	-0.05617609
88	0xbc40368c	-0.011731755
89	0xbe18b80f	-0.14913963
90	0x3d2c65f0	0.042089403
91	0x3e0d5ba7	0.13804494
92	0x3dc73bd6	0.0972821
93	0xbedd4be5	-0.43221965
94	0xbe1a3951	-0.15060927
95	0xbe498780	-0.19680595
96	0xbe429fcb	-0.19006269
97	0xbdbcbb46	-0.09215407
98	0xbf0032f6	-0.5007776
99	0x3deae458	0.11469334
100	0xbe4f4e6f	-0.20244764
101	0x3ca6a892	0.020344052
102	0x3d0b70eb	0.034043234
103	0x3d803875	0.06260768
104	0x3eee9972	0.46601444
105	0xbe0c1a09	-0.13681807
106	0xbed07e9e	-0.407216
107	0x3c960cf5	0.018316725
108	0x3de44ea5	0.11147813
109	0x3e63f207	0.22260295
110	0xbddb006f	-0.10693442
111	0x3dbfbf50	0.09362662
112	0xbbb2afb8	-0.005453076
113	0x3eb169b4	0.34650958
114	0xbb4696b3	-0.0030302226
115	0xbca06c7c	-0.01958298
116	0x3e0477bd	0.12936302
117	0x3cc06065	0.023483464
118	0x3edb42e1	0.42824462
119	0x3ee9bb61	0.4565077
120	0xbe5c6910	-0.21524453
121	0xbd66854d	-0.05627947
122	0x3e4d035c	0.20020813
123	0xbec6c6a5	-0.3882343
124	0xbea7b063	-0.3275176
125	0xbe0499e2	-0.12949327
126	0x3e8e1a2b	0.2775434
127	0xbd299225	-0.04139914
128	0xbdba0391	-0.090827115
129	0x3ebedf81	0.37279895
130	0xbf0342af	-0.51273626
131	0xbd19886e	-0.037483625
132	0x3e6242d6	0.22095808
133	0xbea3c4ca	-0.31986076
134	0xbd837d78	-0.06420416
135	0xbe63907f	-0.2222309
136	0x3e0ae6a3	0.13564543
137	0x3e0b69dd	0.13614602
138	0xbd9d4f6f	-0.076811664
139	0x3e35a5b1	0.17738988
140	0x3d346ff6	0.044052087
141	0x3d3ad014	0.045608595
142	0xba211f3c	-0.0006146317
143	0xbda09575	-0.07841007

encoder.encoder.0.bias f4 [16]
0	0xbada0d7e	-0.0016636101
1	0xbac52998	-0.0015042303
2	0x3d906f6c	0.07052502
3	0xba676510	-0.000882701
4	0xba8b5a92	-0.001063185
5	0xbad3eb74	-0.0016168193
6	0xbc9ccd03	-0.019140726
7	0xba934433	-0.0011235535
8	0xbab659ef	-0.00139123
9	0xb9eec1ec	-0.0004553938
10	0x3e85ed18	0.2615745
11	0xbb37dcae	-0.002805512
12	0xbe7e9b9b	-0.24864046
13	0x398209b2	0.00024802756
14	0xbad7a4b5	-0.0016452285
15	0xbcde251e	-0.027117308

encoder.encoder.2.weight f4 [32, 16, 3, 3]
0	0x3d858b20	0.065206766
1	0xbd5d5122	-0.054032452
2	0xbdd98ae3	-0.10622194
3	0xbd3524a4	-0.044224396
4	0x3df9ba86	0.1219378
5	0x3d2e8381	0.04260588
6	0x3e205cb5	0.15660365
7	0xbd013ed2	-0.03155405
8	0x3d6efced	0.058346678
9	0x3d28cc2f	0.04121035
10	0xbc901023	-0.01758582
11	0xbdc26442	-0.09491779
12	0x3d8c24d8	0.06842965
13	0xbdbd7ffc	-0.09252927
14	0xbe346707	-0.17617427
15	0xbd69f18a	-0.057115115
16	0xbd4b4c70	-0.049633443
17	0x3d5f5fb7	0.05453464
18	0x3d33123a	0.043718554
19	0xbdbceacc	-0.092244714
20	0xbdc90071	-0.09814537
21	0xbd9edef9	-0.077573724
22	0x3d3ba2f7	0.045809712
23	0xbd4b592c	-0.049645588
24	0x3d2454c8	0.040119916
25	0xbcfd141c	-0.030893378
26	0xbcfc5b88	-0.030805364
27	0x3bf985d2	0.0076148296
28	0xbe6c8bb2	-0.23100165
29	0xbef55eca	-0.4792388
30	0xbe014e59	-0.12627544
31	0xbeab4bc2	-0.33456236
32	0xbf064bce	-0.5245942
33	0xbcb5e1f6	-0.022202473
34	0xbe88bebd	-0.26708022
35	0xbe164a70	-0.14676833
36	0xbc93c5dd	-0.018038685
37	0x3d69cacf	0.05707818
38	0x3ce307c6	0.027713668
39	0x3c6ad9c8	0.01433415
40	0x3bcd29e1	0.006261096
41	0xbcf5650b	-0.029955408
42	0xbb2a1b8c	-0.002595636
43	0xbd4edeec	-0.050505564
44	0xbd51a127	-0.051179077
45	0x3dce4d23	0.100733064
46	0x3e225f20	0.158566
47	0xbd0755ec	-0.033040926
48	0xbcbfb0fa	-0.023399819
49	0x3d636e01	0.05552483
50	0x3c86b293	0.016442573
51	0x3cdb3c6d	0.026762212
52	0x3df0159f	0.11722874
53	0x3e11451b	0.14186518
54	0xb9f8c0a3	-0.00047445772
55	0x3de6d181	0.112704284
56	0x3d917d74	0.071040064
57	0x3d53185e	0.05153691
58	0x3e74411c	0.23852962
59	0x3e721ba4	0.23643357
60	0xbd0830a6	-0.03324952
61	0x3d3b3ad1	0.04571039
62	0x3e49aaf4	0.1969412
63	0x3db67d78	0.0891065
64	0xbc88c179	-0.016693817
65	0xbc12a9b3	-0.008951592
66	0xbd767ea0	-0.060179353
67	0x3e67d9b3	0.2264164
68	0x3eb2e17a	0.3493765
69	0x3d92cd07	0.07168012
70	0x3eb9fdba	0.3632639
71	0x3e9c9163	0.3057967
72	0x3bfb3d6b	0.0076672337
73	0x3d0cdaf1	0.034388486
74	0x3b6fb2d8	0.0036575105
75	0xbb52eb0a	-0.0032183551
76	0x3d6c22d0	0.057650387
77	0xbd3235e2	-0.043508418
78	0x3bc5c9f3	0.006036037
79	0xbdc86d2d	-0.09786449
80	0x3c0fb4c4	0.008771125
81	0x3dac22c4	0.084050685
82	0xbce62ef4	-0.02809856
83	0xbc8c435c	-0.017121963
84	0x3dddabac	0.108237594
85	0x3d8df089	0.06930644
86	0xbdb20c4a	-0.0869375
87	0x3dcd77b4	0.10032597
88	0xbd8da3ff	-0.069160454
89	0x3d5391a0	0.05165255
90	0xbe28d3bd	-0.16487022
91	0xbda8f11d	-0.08249114
92	0x3d10d87e	0.035362713
93	0xbe3c6cd6	-0.18400893
94	0xbd886272	-0.06659402
95	0x3d34dfec	0.04415886
96	0xbda98d55	-0.0827891
97	0xbd333f4d	-0.04376154
98	0xbe2b5ff4	-0.16735822
99	0xbcb2d920	-0.021832049
100	0xbd01a0fd	-0.03164767
101	0x3b1f85f6	0.0024341322
102	0x3e1a59e3	0.15073352
103	0x3e53cef1	0.2068441
104	0xbe175878	-0.14779842
105	0x3d6ab589	0.05730203
106	0x3d9f8000	0.07788086
107	0x3da97065	0.08273391
108	0x3c5c2568	0.013436653
109	0xbdc23be3	-0.09484079
110	0xbd7db7a2	-0.061942704
111	0xbd8641e1	-0.06555534
112	0xbc4ef5d1	-0.012631849
113	0xbc88f5d0	-0.016718775
114	0xbd841ad5	-0.0645043
115	0xbc841442	-0.01612294
116	0x3d97fb65	0.074209966
117	0xbd41cdae	-0.047315292
118	0x3e7c6961	0.24649574
119	0x3d540c88	0.051769763
120	0x3ced5992	0.028973375
121	0x3e2afd72	0.16698244
122	0x3e3a66ab	0.18203227
123	0x3e09f9f1	0.13474251
124	0x3d3f5f6e	0.04672187
125	0x3cdd60f7	0.027023776
126	0x3e4dfa01	0.201149
127	0xbdc5650e	-0.09638415
128	0xbe3f0224	-0.1865316
129	0xbd6c32ba	-0.057665564
130	0xbd88aa11	-0.066730626
131	0x3d0a79e1	0.03380764
132	0x3dd2c18d	0.10290823
133	0x3d95ca3e	0.07313965
134	0xbda7db99	-0.08196182
135	0x3dee93b1	0.11649264
136	0x3c852bb9	0.0162562
137	0xbd105f89	-0.03524736
138	0xbca8eedf	-0.020621715
139	0xbce22d76	-0.027609568
140	0xbea4027d	-0.32033148
141	0xbd939cf2	-0.07207669
142	0xbd82ece6	-0.06392841
143	0xbd145aab	-0.03621928
144	0xbe11a086	-0.14221391
145	0x3c2c3ae3	0.010512087
146	0xbb435e35	-0.002981079
147	0x3e66b19e	0.22528693
148	0xbe2ec5b6	-0.17067608
149	0x3d1c77bf	0.038200136
150	0x3ca5d9b8	0.020245418
151	0xbda03cd3	-0.07824101
152	0xbd1b9ce4	-0.03799142
153	0xbb8f408c	-0.0043717083
154	0x3da34650	0.079723954
155	0xbcd9e6a8	-0.026599243
156	0xbdd0ded3	-0.1019875
157	0xbdff8377	-0.12476247
158	0x3dd19e1b	0.10235234
159	0x3d38c053	0.04510529
160	0x3c4df120	0.012569696
161	0xbd1e7e2f	-0.038694557
162	0x3dc91214	0.09817901
163	0xbe09ad8d	-0.1344511
164	0x3b904f1d	0.0044039623
165	0x3dbbf133	0.091768645
166	0xbcd28370	-0.02569744
167	0xbdcd9cda	-0.10039683
168	0x3d48146c	0.0488476
169	0xbd20119e	-0.0390793
170	0xbd912b55	-0.07088343
171	0x3e132e26	0.14373073
172	0x3e32432a	0.17408434
173	0x3d22b4c5	0.039723177
174	0x3ec92611	0.39286855
175	0xbce754bc	-0.028238647
176	0x3cd2852f	0.025698273
177	0x3e082cff	0.13298415
178	0x3d279f48	0.040923387
179	0x3d9cd423	0.07657649
180	0x3da65419	0.08121509
181	0x3d7c84cb	0.06165008
182	0xbc9c1770	-0.019054145
183	0x3b01c230	0.0019799583
184	0x3ca2db6b	0.019880017
185	0x3c9a8e94	0.018866815
186	0xbbd300ee	-0.00643932
187	0xbcccb498	-0.024988458
188	0xbbf8df6f	-0.0075949947
189	0xbddf6bb5	-0.10909215
190	0xbd2ebfb1	-0.04266328
191	0xbd1e5b34	-0.038661197
192	0x3bcf3801	0.006323815
193	0x3cc6ddec	0.024275742
194	0x3cc14398	0.023591802
195	0xbdfeab41	-0.12435008
196	0xbd0d186f	-0.03444713
197	0xbc3e9379	-0.01163184
198	0x3cb6b063	0.022300905
199	0x3d0ac38e	0.0338779
200	0xbe02625b	-0.12732832
201	0xbca6cead	-0.020362223
202	0xbcef63f9	-0.029222475
203	0x3c7f168f	0.015569343
204	0x3c50fcdc	0.012755599
205	0xbe19ed53	-0.15031938
206	0xbdbfaab2	-0.093587294
207	0xbd34a491	-0.044102255
208	0xbe8e3941	-0.27778056
209	0xbe68e331	-0.22742917
210	0xbe4f79e5	-0.20261343
211	0xbc8f9741	-0.017528178
212	0x3d25ce00	0.04047966
213	0xbe1f622d	-0.15564795
214	0x3c174049	0.009231635
215	0xbcda7fcf	-0.026672272
216	0x3d8b9af5	0.06816665
217	0x3d3a3977	0.04546496
218	0x3e0f05e0	0.13967085
219	0x3d9ff389	0.078101225
220	0x3d0ac738	0.033881396
221	0xbafcd31f	-0.0019288993
222	0xbd849744	-0.06474164
223	0xbdc68caf	-0.09694802
224	0xbc084cf8	-0.008319132
225	0xbe0c4e70	-0.13701797
226	0x3e5a0d0d	0.21294041
227	0x3de46af9	0.11153216
228	0xbd277abc	-0.040888533
229	0xbc9bbf1a	-0.019012023
230	0x3dc3b6a4	0.0955632
231	0xbde8d404	-0.11368564
232	0xbe20d991	-0.15707995
233	0x3d3d80a2	0.046265252
234	0xbd9fadf6	-0.07796852
235	0xbdfaa7f5	-0.122390665
236	0x3c7cf8a5	0.015440141
237	0xbda239e1	-0.07921196
238	0xbd8ce1d3	-0.0687901
239	0xbd7ccfd2	-0.06172163
240	0xbdeeefc1	-0.11666823
241	0xbd2ade36	-0.041715823
242	0x3ba3bbdf	0.004996761
243	0xbe974e8f	-0.29552123
244	0xbe22c50e	-0.15895483
245	0xbb149c7d	-0.0022676282
246	0x3b06a017	0.0020542198
247	0xbd866393	-0.06561961
248	0x3d8cf61d	0.0688288
249	0x3e18aeb6	0.14910397
250	0xbda787e2	-0.081802145
251	0x3d3fe8ef	0.046853002
252	0xbe5ce661	-0.21572258
253	0x3c993416	0.018701594
254	0x3dc323b2	0.09528293
255	0xbdced782	-0.100996986

encoder.encoder.2.bias f4 [32]
0	0x3d9d0a64	0.076679975
1	0x3d9fc683	0.07801535
2	0x3cb4455e	0.022005733
3	0xbc328f76	-0.010898462
4	0x3dac9089	0.084260054
5	0x3d9ca56f	0.076487415
6	0xbcaf0dd4	-0.021368898
7	0x3c06ceb1	0.00822799
8	0xbccd7911	-0.025082143
9	0x3c5f427a	0.013626689
10	0x3d086998	0.033303827
11	0xbd59e90a	-0.05320076
12	0xbc81c981	-0.015843155
13	0xbd3eda92	-0.046595164
14	0xbc877010	-0.016532928
15	0x3d36c57a	0.044621922
16	0xbdd74ff8	-0.105133
17	0x3d0ba074	0.034088567
18	0x3db8806d	0.0900887
19	0x3dbfa30b	0.0935727
20	0x3ced9791	0.029002937
21	0x3d1ebe90	0.038755953
22	0x3d0251c9	0.031816278
23	0x3cb17cae	0.021665897
24	0x3c105db7	0.008811406
25	0x3d5b270e	0.053504042
26	0xbd7e5446	-0.06209209
27	0x3b4d0b56	0.0031287274
28	0xbc9088a4	-0.01764328
29	0x3ca21d3b	0.019789329
30	0x3c41d762	0.011831136
31	0x3d99d24c	0.07510814

encoder.encoder.4.weight f4 [64, 32, 7, 7]
0	0xbc74741d	-0.014920262
1	0xbe1095f7	-0.14119707
2	0x3cf71d12	0.030165229
3	0x3d30a377	0.043124642
4	0x3d8d0328	0.06885368
5	0x3e425b4e	0.18980142
6	0x3da611a7	0.08108836
7	0x3ccf3315	0.025292912
8	0xbd595af0	-0.05306524
9	0xbdcd328a	-0.10019405
10	0xbe5f98f1	-0.21835686
11	0xbe1564dd	-0.14589258
12	0xbe261251	-0.16217925
13	0x3a693dae	0.00088974356
14	0xbe06a4bd	-0.1314878
15	0x3d05fce9	0.032711897
16	0xbdd29cff	-0.10283851
17	0xbe092f95	-0.13397057
18	0xbe1cd427	-0.15315305
19	0x3df08e7d	0.117459275
20	0x3da17ce5	0.0788515
21	0xbd63ded0	-0.055632412
22	0x3e01ccb5	0.12675746
23	0x3d3901e6	0.045167826
24	0xbd123347	-0.035693433
25	0xbe44f9eb	-0.19235961
26	0x3dc7a344	0.09747937
27	0x3e0c629c	0.13709491
28	0xbe0dc432	-0.13844374
29	0xbdd5e249	-0.10443551
30	0x3d21ce62	0.039503463
31	0xbccfc4ec	-0.025362454
32	0xbde17e5b	-0.110104285
33	0xb97ccd56	-0.00024109086
34	0x3dd19be9	0.102348156
35	0x3dcc17d0	0.099654794
36	0xbdc8e852	-0.098099366
37	0xbd7e3c0a	-0.062068976
38	0xbe215248	-0.15754044
39	0xbbcd367b	-0.006262598
40	0xbd581da5	-0.052762646
41	0x3b9b16bd	0.004732935
42	0xbe010a74	-0.12601644
43	0xbe46ce52	-0.19414642
44	0xbe0060ed	-0.12536974
45	0xbdb96d3e	-0.090540394
46	0xbe349ad0	-0.17637181
47	0xbe54e4ad	-0.20790358
48	0xbcd5d64b	-0.02610316
49	0xbdcee1b5	-0.10101644
50	0x3cd0a89c	0.025471024
51	0x3d22f0a5	0.039780278
52	0x3df68979	0.120379396
53	0x3df634ff	0.12021827
54	0x3d084a54	0.03327401
55	0xbd8911b7	-0.06692832
56	0xbd37a115	-0.044831354
57	0x3e569ed1	0.20959021
58	0x3e29507b	0.16534607
59	0x3e164317	0.1467403
60	0x3e625a15	0.22104676
61	0x3dbfd58a	0.09366901
62	0xbcadcb2b	-0.021215042
63	0x3d92d204	0.071689636
64	0xbdba8df3	-0.09109106
65	0x3e01393a	0.12619486
66	0xbd7ca87d	-0.06168412
67	0xbeae15f9	-0.3400114
68	0x3e014515	0.12624009
69	0x3e2cb428	0.16865599
70	0x3d5b7c60	0.05358541
71	0x3cd65d6f	0.0261676
72	0x3e3ee7fc	0.18643183
73	0xbe1526b2	-0.14565542
74	0xbe3a60e2	-0.1820102
75	0x3d36dfdf	0.044647094
76	0x3c211b11	0.009833113
77	0xbd263478	-0.04057738
78	0xbdd28ff2	-0.10281362
79	0x3cde3949	0.027126925
80	0xbd4c9197	-0.049943533
81	0xbe36da20	-0.17856646
82	0x3de7b5b2	0.113139525
83	0xbb9d64e9	-0.004803289
84	0xbc23df60	-0.010001987
85	0xbca2f75e	-0.019893344
86	0xbd65db8d	-0.056117583
87	0xbd53a146	-0.051667474
88	0x3ca5f401	0.020257952
89	0x3e0f47cd	0.13992234
90	0x3e38dfa3	0.1805406
91	0xbcf50b90	-0.02991274
92	0xbdf6b9d6	-0.12047164
93	0x3d73b3e0	0.059497714
94	0xbd4137a7	-0.047172215
95	0x3d2d26fb	0.042273503
96	0x3dea8139	0.114504285
97	0x3daabb7f	0.08336543
98	0x3d1a82fc	0.037722573
99	0x3e267c13	0.16258268
100	0xbd5a7967	-0.053338435
101	0xbdbae755	-0.09126154
102	0xbd9a403d	-0.07531784
103	0xbdaa0751	-0.08302177
104	0x3c968031	0.018371673
105	0x3d0078c2	0.031365164
106	0x3e024a54	0.12723666
107	0x3d7b7c44	0.061397806
108	0xbdb1692b	-0.08662637
109	0xbdad82e6	-0.084722325
110	0x3d13a5dc	0.036046848
111	0x3e25af96	0.16180262
112	0xbd8db6cd	-0.06919632
113	0x3e088a54	0.13334018
114	0x3c39aa2b	0.011332075
115	0x3d96bb21	0.07359911
116	0xbe3b4c00	-0.1829071
117	0x3da1443a	0.07874341
118	0xbceb846d	-0.028749669
119	0x3d03e58b	0.03220133
120	0x3e1e7281	0.15473367
121	0x3dabf4e4	0.083963186
122	0xbe1c7ad2	-0.15281227
123	0xbe20aef4	-0.1569174
124	0x3e1007c6	0.14065465
125	0x3e07a019	0.13244666
126	0xbdc6e6e5	-0.097120084
127	0x3d80d4b0	0.06290567
128	0xbc8cc50a	-0.0171838
129	0x3c284b53	0.010271865
130	0xbdb04e30	-0.08608663
131	0x3b74e566	0.0037368177
132	0xbbf5dc24	-0.0075030494
133	0xbe11223d	-0.14173217
134	0xbd0a266e	-0.033728056
135	0xbd581b79	-0.052760575
136	0xbdf9d91b	-0.12199613
137	0xbd82a292	-0.06378664
138	0x3d3879c0	0.045037985
139	0xbc74c2f7	-0.014939061
140	0xbc0eef57	-0.008724055
141	0x3d54048b	0.051762145
142	0xbcdf8d5d	-0.027289087
143	0xbd908690	-0.07056916
144	0xbd6ea71e	-0.058264844
145	0x3d054249	0.032533918
146	0x3e2f1aff	0.17100142
147	0x3bc2c868	0.0059443004
148	0x3c6fe702	0.014642479
149	0xbceb9aa3	-0.02876026
150	0x3d16c012	0.036804266
151	0xbabb4c52	-0.0014289713
152	0xbaa35a99	-0.0012462913
153	0xbad44980	-0.0016196221
154	0x3bd2e4cd	0.0064359666
155	0xbe2ab0ff	-0.16669081
156	0xbd38f33b	-0.045153838
157	0x3a94542a	0.0011316587
158	0xbdd65c55	-0.1046683
159	0xbe167931	-0.14694668
160	0x3dee7a9d	0.116444804
161	0xbd672aec	-0.056437418
162	0x3d74108b	0.05958609
163	0xbd6437c5	-0.05571725
164	0xbe5f1d9b	-0.21788637
165	0xbe4e9f9f	-0.20178078
166	0xbd2213c9	-0.03956965
167	0xbbbcccd4	-0.005761722
168	0x3da29b05	0.07939724
169	0xbd4d56da	-0.050131656
170	0x3d0a891f	0.033822175
171	0xbd044908	-0.03229621
172	0xbde130c8	-0.109956324
173	0x3e802fd4	0.2503649
174	0x3df1f452	0.118141785
175	0x3e8054b9	0.25064638
176	0x3c8844e5	0.016634414
177	0x3c460c32	0.0120878685
178	0xbdb29bed	-0.08721147
179	0xbbfd3e36	-0.0077283634
180	0xbd837e2f	-0.06420552
181	0x3de41e05	0.11138538
182	0x3e2d3500	0.16914749
183	0xbd4b1f02	-0.04959012
184	0xbd7b6bb7	-0.06138202
185	0xbd635891	-0.055504385
186	0xbe43d167	-0.1912285
187	0xbc788ab8	-0.015169792
188	0x3e0c65a5	0.1371065
189	0x3d5b87c6	0.05359628
190	0xbd691376	-0.056903325
191	0xbda96e82	-0.08273031
192	0xbe213e2a	-0.1574637
193	0xbe04917e	-0.12946126
194	0x3cacdfc2	0.02110279
195	0xbe07b19d	-0.13251348
196	0xbd42128f	-0.04738098
197	0xbe7fab47	-0.24967681
198	0x3dc2303b	0.094818555
199	0xbd20df13	-0.03927524
200	0xbd1c5a4d	-0.038172055
201	0xbe39f8b3	-0.18161277
202	0x3d358260	0.04431379
203	0xbbc7faf3	-0.0061029135
204	0x3de32b3d	0.110922314
205	0x3daff792	0.08592142
206	0x3d5705a8	0.05249563
207	0xbcbd2efe	-0.023093697
208	0x3db93ad3	0.09044423
209	0x3e3c6d82	0.18401149
210	0x3e30b248	0.17255509
211	0x3e7b1294	0.24518806
212	0x3e077d3f	0.13231371
213	0xbd969517	-0.073526554
214	0xbd2ea5a6	-0.042638443
215	0x3c8e90a8	0.017402962
216	0x3e86ef8b	0.26354632
217	0x3c68defe	0.014213322
218	0x3e4cf326	0.20014629
219	0x3e0a048e	0.134783
220	0xbcd2d3ee	-0.025735822
221	0xbdda2a78	-0.106526315
222	0x3e449a94	0.19199592
223	0x3ef69df0	0.48167372
224	0xbdea1cad	-0.11431251
225	0x3da3e270	0.08002174
226	0xbcc3b620	-0.023890555
227	0xbc752548	-0.014962502
228	0xbc1a1c22	-0.009406121
229	0x3dc6d45f	0.09708475
230	0x3e0d435b	0.13795225
231	0x3d06a338	0.0328705
232	0xbd1ce685	-0.038305778
233	0xbd237fb5	-0.039916713
234	0xbd1a4d05	-0.037671108
235	0xbca1c6b6	-0.019748073
236	0xbd40a7ea	-0.047035135
237	0xbe1cdbc8	-0.15318215
238	0xbde4f463	-0.111794256
239	0x3da75c73	0.0817193
240	0x3da649e3	0.081195615
241	0x3dd1a10a	0.10235794
242	0x3de9dde9	0.11419279
243	0x3e18b629	0.14913239
244	0x3dbf764c	0.09348735
245	0xbdadc2c1	-0.08484412
246	0xbda5c0e4	-0.080934316
247	0xbbd692b0	-0.006548248
248	0xbd1b3f48	-0.037902147
249	0xbd2cf8f0	-0.042229593
250	0xbc0c9fc5	-0.008583014
251	0x3cdbdc31	0.026838394
252	0xbd264de3	-0.040601622
253	0xbd8ac786	-0.06776337
254	0x3c6b8455	0.014374812
255	0x3ce06ae4	0.02739472

encoder.encoder.4.bias f4 [64]
0	0xbd249b9d	-0.040187467
1	0xbd2fd71a	-0.042929746
2	0xbd257817	-0.04039773
3	0xbac9a2ce	-0.0015383603
4	0xbd8b400b	-0.067993246
5	0x3c08ab82	0.008341672
6	0x3dad26a8	0.08454639
7	0xbd87633c	-0.06610724
8	0xbdb2772b	-0.08714136
9	0x3c64682e	0.013940854
10	0xbbf24cd4	-0.0073944125
11	0xbc8eb0b8	-0.01741825
12	0x3d515a52	0.051111527
13	0x3a40bf0f	0.00073526887
14	0x3d2ae769	0.041724596
15	0x3dd0c242	0.10193302
16	0xbce7eb8c	-0.02831056
17	0x3d9493c3	0.07254746
18	0xbdec92f2	-0.11551465
19	0xbd6ca195	-0.057771284
20	0x3d4a1d06	0.049344085
21	0xbd820ab5	-0.063496985
22	0x3b6a7e61	0.0035780894
23	0x3d3f3b56	0.046687447
24	0xbdc4dc4b	-0.0961233
25	0x3dcead64	0.100916654
26	0x3cc00564	0.02344007
27	0xbd8d246b	-0.06891712
28	0x3b9c8ef9	0.004777786
29	0xbd414424	-0.047184125
30	0xbd86c271	-0.065800555
31	0xbddf7d33	-0.10912552
32	0x3dd260a2	0.102723375
33	0x3b2df9ee	0.0026546675
34	0xbcae54c5	-0.021280656
35	0xbd806b52	-0.0627047
36	0x3d472bf3	0.048625898
37	0xbda68399	-0.08130569
38	0x3d1a649e	0.037693612
39	0x3d39220c	0.045198485
40	0x3da19941	0.07890559
41	0xbc476104	-0.012169126
42	0xbd6c410f	-0.057679232
43	0x3c7b29e8	0.015329815
44	0x3daee660	0.08540034
45	0xbdd26e50	-0.10274947
46	0xbd6a71ba	-0.057237364
47	0x3db74f7a	0.08950706
48	0xbd7a83c3	-0.061160814
49	0x3d9b4fb3	0.07583561
50	0xbca481e9	-0.020081477
51	0x3c6a2806	0.014291769
52	0xbc92b9ca	-0.017910857
53	0xbd569528	-0.05238834
54	0xbd4992dd	-0.049212325
55	0xbd070b86	-0.032969974
56	0xbda006a6	-0.07813768
57	0x3dc96afe	0.0983486
58	0x3d3b0d01	0.0456667
59	0xbd9452dd	-0.072423674
60	0x3d0c46c8	0.03424719
61	0x3c828e7e	0.015937086
62	0xbda46ab1	-0.08028162
63	0x3c8daacb	0.017293354

latent_space.fc1.weight f4 [12, 64]
0	0x3d13d469	0.036091242
1	0xbe2afe97	-0.16698681
2	0xba4c7d83	-0.0007800685
3	0x3e6d70c4	0.23187548
4	0xbc8d62d4	-0.017259039
5	0x3c836b48	0.016042367
6	0xbdc88e29	-0.0979274
7	0x3e5b2a73	0.21402912
8	0xbc53be94	-0.012923855
9	0xbd86a0fb	-0.06573673
10	0xbe5cb23d	-0.21552368
11	0x3d8a6332	0.06757201
12	0xbdc9bea0	-0.09850812
13	0xbcc7b030	-0.024376005
14	0x3d078587	0.033086326
15	0xbd74bfea	-0.059753336
16	0xbe63bb35	-0.22239383
17	0x3d8a1319	0.06741924
18	0xbdd4868d	-0.10377226
19	0xbbca8d89	-0.006181423
20	0x3cfe9f10	0.031081706
21	0xbe1f7f09	-0.15575804
22	0xbe7796ba	-0.24178591
23	0xbd497c39	-0.049190734
24	0x3ba1c028	0.004936237
25	0x3da7c683	0.0819216
26	0xbe588f8a	-0.21148506
27	0x3e3fb9d9	0.18723239
28	0xbc809cf2	-0.015699837
29	0x3bcb88a6	0.006211358
30	0xbdd98a9c	-0.10622141
31	0x3e4fd6d5	0.20296796
32	0x3e39437c	0.1809215
33	0x3c89f220	0.016839087
34	0x3d827eaf	0.06371819
35	0x3e309701	0.17245103
36	0x3da5ed4a	0.081019
37	0xbe30fa3a	-0.17282954
38	0xbe2c3c08	-0.16819775
39	0x3d3efd44	0.04662825
40	0x3ded0d17	0.11574762
41	0xbd18c660	-0.03729856
42	0x3e15ebc6	0.14640722
43	0xbe380ad1	-0.17972876
44	0xbe13c44a	-0.14430347
45	0x3c92131a	0.017831374
46	0x3da60df6	0.081081316
47	0xbe0b1143	-0.13580804
48	0xbb86c4d7	-0.0041128206
49	0xbe3c71ce	-0.18402788
50	0x3d6d5899	0.05794582
51	0x3c4e4dea	0.012591818
52	0x3de02948	0.10945374
53	0x3ddb5943	0.10710385
54	0xbe13b678	-0.14425075
55	0xbdef4623	-0.116832994
56	0xbd873b9e	-0.06603168
57	0xbe8c5033	-0.27404937
58	0x3cb42eb5	0.021994928
59	0xbe2c64d3	-0.16835336
60	0x3e5185aa	0.20461145
61	0xbdef3890	-0.1168071
62	0x3c0697fe	0.008214949
63	0xbdb5b648	-0.08872658
64	0xbde5d4ed	-0.11222253
65	0xbd56adcc	-0.05241184
66	0xbd8c7bb8	-0.06859535
67	0x3dfc5dfd	0.12322614
68	0x3d756ac3	0.05991627
69	0xbc413393	-0.011792081
70	0x3e340e00	0.17583466
71	0xbe3f741f	-0.1869664
72	0xbd3a062d	-0.045416046
73	0xbdec0692	-0.11524691
74	0x3d38ae3b	0.045088034
75	0xbd98538f	-0.074378125
76	0x3e0f5ac4	0.13999468
77	0x3e32516b	0.17413871
78	0x3d8e626b	0.069523655
79	0x3dbd9e0a	0.09258659
80	0x3e2a6f4c	0.16644019
81	0x3e2a6fc3	0.16644196
82	0xbe36a36b	-0.17835777
83	0x3d79632e	0.0608856
84	0xbde60fd0	-0.11233485
85	0xbc1a0304	-0.009400133
86	0xbca0e596	-0.019640725
87	0xbd84b988	-0.064807
88	0xbdbff262	-0.09372403
89	0x3e1b0a3d	0.15140624
90	0xbda49d0b	-0.08037766
91	0xbe4673ee	-0.19380161
92	0x3d1b8381	0.03796721
93	0xbe440506	-0.19142541
94	0x3d9eca15	0.07753388
95	0xbd3beb7d	-0.045878876
96	0x3de4934f	0.111609094
97	0xbda548dd	-0.08070538
98	0x3ca37a04	0.019955643
99	0x3e8270fc	0.25476825
100	0xbe68e3da	-0.22743168
101	0xbcf3edae	-0.02977642
102	0x3df80205	0.1210976
103	0xbe3035d8	-0.1720804
104	0xbe558e5e	-0.2085509
105	0x3c9b56ba	0.018962253
106	0xbdbc167c	-0.09183976
107	0x3dce04d3	0.10059514
108	0xbe2960c7	-0.16540824
109	0xbc143c13	-0.009047526
110	0xbd618806	-0.055061363
111	0xbda15fa4	-0.0787957
112	0x3d806b02	0.0627041
113	0xbd973bb5	-0.07384435
114	0xbe326819	-0.17422523
115	0x3da1cd93	0.07900538
116	0xbc38840e	-0.011261953
117	0x3d4cbbea	0.049983896
118	0x3e08ac25	0.13346918
119	0xbe122774	-0.14272863
120	0x3d2c8035	0.042114455
121	0x3d9f6da9	0.07784588
122	0x3df9e29a	0.12201424
123	0xbe2beccb	-0.16789548
124	0x3c873281	0.016503574
125	0x3ca12621	0.019671502
126	0xbdf0e89b	-0.11763116
127	0xbe9c7068	-0.3055451
128	0x3db33b8f	0.08751594
129	0x3deac7ba	0.11463876
130	0x3d102ed2	0.0352009
131	0xbc8ee3fb	-0.017442694
132	0x3df39617	0.11893862
133	0x3dc80041	0.097656734
134	0x3c7a6a5d	0.015284148
135	0x3e14e3e5	0.1454006
136	0xbe138b6c	-0.14408654
137	0xbd91fc4b	-0.07128199
138	0x3c3b9369	0.01144872
139	0x3c5b4b01	0.013384582
140	0xbd7e9d22	-0.062161572
141	0x3e18ccd8	0.14921892
142	0x3e54aead	0.20769759
143	0xbc857b87	-0.016294254
144	0xbea06206	-0.31324786
145	0xbc9ce228	-0.019150808
146	0x3e2ea6e3	0.1705585
147	0xbc93107c	-0.017952196
148	0x3a3c84a4	0.0007191396
149	0xbdc78410	-0.09741986
150	0x3e3cf60d	0.18453236
151	0x3dd441de	0.10364126
152	0x3e26d12c	0.1629073
153	0x3cc89a42	0.024487618
154	0x3e1554f6	0.14583191
155	0x3e6f9c75	0.23399527
156	0xbde28b4d	-0.11061726
157	0xbdef31dd	-0.116794325
158	0x3dd12551	0.10212196
159	0xbe47e5cc	-0.19521254
160	0xbdf33332	-0.11874999
161	0x3dad61a3	0.08465888
162	0xbe8b4100	-0.2719803
163	0xbe4f9237	-0.2027062
164	0xbdade868	-0.084915936
165	0x3c1eab96	0.009684464
166	0xbcf20b36	-0.029546361
167	0xbd4d44e0	-0.050114512
168	0xbd755771	-0.059897844
169	0xbdaf8ea4	-0.085721284
170	0xbdd70cb4	-0.1050047
171	0x3d94405f	0.0723884
172	0xbde38ff9	-0.11111445
173	0xbccccd1f	-0.025000153
174	0x3cc7da6a	0.02439614
175	0xbe173400	-0.1476593
176	0xbce418b1	-0.027843805
177	0xbc3a01ea	-0.011352995
178	0xbd457c89	-0.04821447
179	0x3dc00c69	0.09377367
180	0x3de3ed43	0.111292385
181	0xbcbd9b1e	-0.023145255
182	0x3df66070	0.12030113
183	0xbc94eccb	-0.018179318
184	0x3e17bb1a	0.14817467
185	0x3b220dbd	0.0024727427
186	0x3d21f3ae	0.03953903
187	0xbe2abc04	-0.16673285
188	0x3df0380b	0.11729439
189	0x3ddda228	0.108219445
190	0x3b8d9a07	0.00432134
191	0x3e1ac13f	0.1511278
192	0x3e4eea25	0.20206507
193	0xbd9b3cc9	-0.07579953
194	0x3e1a8916	0.15091357
195	0xbe1d5987	-0.15366183
196	0xbe33ca40	-0.17557621
197	0xbd2aaac7	-0.041666772
198	0xbe064284	-0.13111311
199	0xbbec54c1	-0.007212252
200	0x3e1db2f7	0.15400301
201	0x3d890adb	0.06691524
202	0xbd4915d3	-0.04909308
203	0x3e4d9b1f	0.20078705
204	0x3d53954f	0.051656064
205	0x3e11eb41	0.14249898
206	0xbe198431	-0.14991833
207	0xbdef2cbd	-0.11678455
208	0x3e83cb5d	0.2574109
209	0xbe0f5fe8	-0.14001429
210	0xbdb0ed7a	-0.08639045
211	0x3d893b39	0.06700749
212	0x3d6ee101	0.05832005
213	0x3e55376c	0.20821923
214	0xbe2a80f9	-0.16650762
215	0x3e0629d4	0.13101894
216	0x3e32fb2b	0.17478625
217	0x3a281400	0.00064116716
218	0xbde789dd	-0.11305592
219	0xbc76c8dd	-0.015062538
220	0xbdbcfd86	-0.09228043
221	0xbdd8a017	-0.1057741
222	0x3dbd65af	0.0924791
223	0x3e17b0bd	0.14813514
224	0x3d5563ed	0.05209725
225	0x3da5c959	0.08095045
226	0xbdeb8eb4	-0.11501828
227	0xbd48cd24	-0.049023762
228	0xbdeaaa7e	-0.114583
229	0x3e0d34d9	0.13789691
230	0x3d3f5e4e	0.046720795
231	0xbdf48432	-0.11939277
232	0xbd914dfe	-0.07094954
233	0xbca0170f	-0.019542245
234	0x3be30c47	0.006928954
235	0xbd065c36	-0.032802783
236	0x3cc792ad	0.024361933
237	0x3d413ece	0.047179036
238	0xbe20cde3	-0.1570354
239	0xbdab8a79	-0.08376021
240	0xbc9e68c8	-0.019337073
241	0xbd8840f3	-0.06653013
242	0xbd6396d5	-0.055563767
243	0x3def7e57	0.11694019
244	0x3da1912c	0.078890175
245	0x3d6795ee	0.05653947
246	0xbd1c4dcd	-0.038160134
247	0xbe094478	-0.13405025
248	0x3e2a989d	0.1665978
249	0x3da40f4e	0.08010732
250	0x3df67b6f	0.12035262
251	0x3d10da96	0.03536471
252	0xbe5992a8	-0.21247351
253	0xbdbd1d5e	-0.09234117
254	0x3e07a7df	0.13247631
255	0xbbb70de6	-0.0055863736

latent_space.fc1.bias f4 [12]
0	0xbc0773f5	-0.008267392
1	0x3d0202a1	0.03174079
2	0xbe0ce68f	-0.13759826
3	0xbe214ea5	-0.15752657
4	0x3cb08135	0.021545986
5	0x3e3a36e5	0.18185003
6	0xbd94a5ea	-0.07258208
7	0x3de29487	0.110634856
8	0x3db95ba4	0.09050682
9	0xbd861c4d	-0.06548367
10	0xbdd35151	-0.10318244
11	0xbe237464	-0.15962368

latent_space.fc2.weight f4 [64, 12]
0	0xbe30b0e3	-0.17254977
1	0x3e44c317	0.19215046
2	0xbe523481	-0.20527841
3	0x3e4c9843	0.19979958
4	0xbc5094b1	-0.012730763
5	0xbe023472	-0.12715319
6	0xbe33a9fd	-0.17545314
7	0x3df558c2	0.1197982
8	0xbde896e5	-0.11356906
9	0xbe2f94ea	-0.1714665
10	0xbc455877	-0.012045017
11	0xbe2ba5c3	-0.16762452
12	0x3b1a8592	0.002357815
13	0xbdef02db	-0.116704665
14	0xbdf9e25a	-0.12201376
15	0x3e765424	0.24055535
16	0x3d5b977a	0.053611256
17	0xbe27d97d	-0.16391559
18	0x3e71e1a2	0.23621228
19	0x3e77cee6	0.24200019
20	0x3ddfdd9f	0.10930943
21	0xbb9442a4	-0.0045245457
22	0xbe144ddb	-0.14482825
23	0xbe787417	-0.24263035
24	0x3ea63f95	0.32470384
25	0x3e83bbc3	0.25729188
26	0x3ce43e18	0.02786164
27	0x3e46ee13	0.19426756
28	0xbe8e6a91	-0.2781568
29	0xbea59f02	-0.32347876
30	0x3db0a4dd	0.08625195
31	0xbc5c0b9d	-0.013430503
32	0x3dc0e3f7	0.09418481
33	0xbdcd688c	-0.10029706
34	0xbe31136c	-0.17292565
35	0xbe0bb114	-0.13641769
36	0x3e2d102f	0.16900705
37	0xbd2f206f	-0.04275554
38	0xbc59c820	-0.013292342
39	0xbe23c41f	-0.15992783
40	0x3e56278d	0.20913525
41	0x3e4e2c7f	0.20134161
42	0xbdc631c0	-0.09677458
43	0xbed5cd60	-0.4175825
44	0x3dabee10	0.08395016
45	0xbe59e675	-0.21279319
46	0xbcd3f653	-0.025874292
47	0xbe29aee1	-0.16570617
48	0xbea9fa56	-0.33198804
49	0xbc9df8b7	-0.019283636
50	0x3d9cbc1f	0.07653069
51	0x3e95966c	0.29216325
52	0xbe0d491c	-0.1379742
53	0xbe57e7a0	-0.21084452
54	0xbe50e416	-0.20399508
55	0xbeb271b3	-0.3485237
56	0x3d6fd449	0.05855206
57	0x3cac255f	0.021013914
58	0xbdf7a92e	-0.12092815
59	0xbe80c894	-0.2515303
60	0x3e68d1b8	0.22736251
61	0x3e3d00aa	0.18457285
62	0x3e4cb0b5	0.19989283
63	0xbca295d4	-0.019846834
64	0x3ce2b43d	0.027673835
65	0xbda02be9	-0.07820875
66	0x3dee8b5e	0.11647676
67	0xbdaee041	-0.08538867
68	0x3bd4171c	0.0064724814
69	0xbbbe1e42	-0.005801947
70	0xbe6777ba	-0.22604266
71	0xbd7fdfb6	-0.062469207
72	0x3db105b6	0.086436674
73	0x3e96819c	0.2939576
74	0xbd66bd50	-0.056332886
75	0xbe7a0048	-0.2441417
76	0x3e5ddd8b	0.21666543
77	0x3e1021ba	0.14075366
78	0xbe779936	-0.24179539
79	0x3e8297d6	0.25506467
80	0xbdf018b4	-0.11723462
81	0x3e18222e	0.14856789
82	0xbeb55a37	-0.3542039
83	0xbdf52e21	-0.11971689
84	0xbd35d2cf	-0.044390496
85	0xbdcb33cf	-0.09921991
86	0x3d2e8c91	0.042614523
87	0xbd9e1cd8	-0.07720345
88	0x3eb56f58	0.3543651
89	0x3e8253ca	0.2545455
90	0xbe161dd3	-0.14659815
91	0x3ea162f1	0.315208
92	0xbd81a7b3	-0.06330814
93	0x3eade305	0.33962265
94	0x3ea86001	0.32885745
95	0xbe3fd048	-0.18731797
96	0xbd1dee33	-0.038557243
97	0xbe06cf6f	-0.13165067
98	0x3d372795	0.044715483
99	0xbe75f666	-0.24019775
100	0xbe4a52f3	-0.19758205
101	0x3cd558ee	0.026043382
102	0x3e8858ff	0.266304
103	0x3e086c97	0.13322674
104	0x3e9b246e	0.3030123
105	0xbe9db715	-0.30803743
106	0x3e4046a6	0.1877695
107	0xbebdedeb	-0.3709558
108	0xbd14c36c	-0.03631918
109	0xbe023836	-0.12716755
110	0xbdc5f570	-0.09665954
111	0x3dc3accf	0.09554445
112	0x3e83b13d	0.2572116
113	0xbe916a7b	-0.2840155
114	0xbdb14554	-0.086558014
115	0xbcf4399a	-0.029812623
116	0xbda519fc	-0.08061597
117	0x3e924591	0.285687
118	0x3cb93bfc	0.02261161
119	0xbe8b22d7	-0.27175018
120	0x3ea44c25	0.32089344
121	0x3d73f43e	0.0595591
122	0xbec7e07b	-0.39038453
123	0x3da76d64	0.081751615
124	0xbe5897e5	-0.21151693
125	0xbde08090	-0.10962021
126	0x3e86d4cf	0.26334235
127	0x3d915667	0.07096558
128	0xbe35c6ea	-0.17751661
129	0x3ec7857b	0.38969025
130	0x3dd3cf9d	0.103423335
131	0x3d6451eb	0.055742186
132	0x3c777fed	0.0151061835
133	0xbdf0f9a6	-0.11766367
134	0x3e82f527	0.2557766
135	0x3e44190f	0.19150184
136	0xbe740fbb	-0.23834126
137	0x3e2ac9a3	0.16678481
138	0x3e9aee9d	0.30260172
139	0xbe81fa54	-0.25386298
140	0xbdd4da4a	-0.10393198
141	0x3e196bb8	0.14982498
142	0xbc7bd932	-0.015371608
143	0x3e47b4b6	0.1950253
144	0xbe08841a	-0.13331643
145	0x3d5ccf65	0.053908724
146	0x3e6c6f42	0.23089316
147	0x3d3a32c4	0.04545857
148	0x3e6187b2	0.2202442
149	0xbe63d833	-0.22250442
150	0x3e448818	0.1919254
151	0xbd59e734	-0.053199008
152	0xbea0423d	-0.31300536
153	0xbcc41b08	-0.02393867
154	0xbe8bebf9	-0.2732847
155	0xbe9e1c58	-0.30881
156	0x3d0cf047	0.034408834
157	0xbcebcbde	-0.028783735
158	0x3d1e6333	0.038668822
159	0xbe2a5ca6	-0.16636905
160	0xbd9b795f	-0.07591509
161	0xbdc7fd5c	-0.09765121
162	0xbd67a682	-0.05655528
163	0xbdd180c5	-0.10229639
164	0x3e10f85d	0.14157243
165	0x3cca1f33	0.02467308
166	0xbd140af3	-0.036143254
167	0x3d6e6b87	0.058208015
168	0x3e62ab5a	0.22135678
169	0x3e371045	0.178773
170	0xbdcd0427	-0.100105576
171	0x3e8132cd	0.2523407
172	0xbcbdb102	-0.023155693
173	0x3ea4745f	0.32120034
174	0xbd1669e1	-0.036722068
175	0x3dff8d18	0.12478083
176	0xbe1b7e3f	-0.15184878
177	0x3e6afe1e	0.229485
178	0xbe85e6b9	-0.2615259
179	0xbdfa0222	-0.12207438
180	0x3ec7dde2	0.3903647
181	0xbe587db2	-0.21141699
182	0x3e146b93	0.14494161
183	0x3d04b4dc	0.032399043
184	0x3dd56961	0.1042049
185	0xbd9d578f	-0.07682716
186	0x3d9cbfa2	0.076537386
187	0xbdad0787	-0.08448701
188	0x3e63e197	0.22254024
189	0x3d93015e	0.07177995
190	0xbd987096	-0.07443349
191	0xbe889375	-0.26675
192	0x3e050088	0.12988484
193	0x3dc2c283	0.095097564
194	0xbc96415c	-0.018341713
195	0xbdfe1319	-0.12405986
196	0xbe3d5c39	-0.18492211
197	0x3d09fcb4	0.033688262
198	0x3e893a28	0.26802182
199	0x3e23b170	0.15985656
200	0x3e752aef	0.23942159
201	0xbe936d67	-0.28794405
202	0xbea5c74f	-0.32378623
203	0x3ebded9f	0.37095353
204	0x3ebb91f0	0.3663478
205	0xbe457f41	-0.19286825
206	0xbe978901	-0.29596713
207	0xbdae9182	-0.08523847
208	0x3d8293d3	0.063758515
209	0xbccc37b5	-0.024928907
210	0xbe40ebbd	-0.18839927
211	0xbc4f3ab9	-0.012648278
212	0xbd01f828	-0.0317308
213	0xbe6fe24a	-0.23426166
214	0x3e839494	0.25699294
215	0x3b53e05d	0.0032329776
216	0xbe82c19b	-0.25538334
217	0x3c383159	0.011242234
218	0xbcf2e81b	-0.029651692
219	0x3e849e0e	0.25901836
220	0x3e5257d7	0.2054132
221	0xbe712ca7	-0.2355219
222	0x3c00360a	0.007825384
223	0xbdb5465b	-0.0885131
224	0xbe5497f0	-0.20761085
225	0xbeaa92ae	-0.33315033
226	0xbc895a4f	-0.016766695
227	0x3e16de73	0.14733295
228	0x3d75f205	0.06004526
229	0x3e2ae6e0	0.16689634
230	0xbd17e2e9	-0.037081633
231	0xbca87f15	-0.02056841
232	0x3dbfb873	0.09361353
233	0xbd0eba0a	-0.03484539
234	0xbd3c4211	-0.045961443
235	0xbe5bb3fb	-0.21455376
236	0xbe5d5d70	-0.21617675
237	0xbe2454fa	-0.16048041
238	0xbe37ea75	-0.17960532
239	0x3e48832e	0.19581291
240	0x3d409a66	0.047022246
241	0x3ed52641	0.41630748
242	0xbdbfc138	-0.093630254
243	0xbeb3172c	-0.34978616
244	0x3e6554ba	0.22395602
245	0x3dcc3d93	0.09972682
246	0xbe14c134	-0.14526826
247	0xbe586cca	-0.2113525
248	0x3e39163c	0.18074888
249	0x3dd1b9d8	0.10240525
250	0x3e8a87f2	0.27056843
251	0xbe429306	-0.19001397
252	0xbb3b5732	-0.0028585908
253	0xbe36fbf4	-0.1786955
254	0xbd882c9b	-0.06649133
255	0xbd8de9a4	-0.06929329

latent_space.fc2.bias f4 [64]
0	0xbd02c6ab	-0.031927746
1	0x3eef1837	0.46698162
2	0xbe451e0b	-0.19249742
3	0xbf0c8425	-0.54889137
4	0xbef81f18	-0.48461223
5	0x3e3c1bb0	0.18369937
6	0x3ec3bdf0	0.38230848
7	0x3f7b698c	0.98207927
8	0xbf7727e7	-0.9654526
9	0x3ecb79bc	0.39741313
10	0x3d499b07	0.04922011
11	0xbd70a720	-0.058753133
12	0x3f07b7df	0.5301494
13	0xbf145e39	-0.5795627
14	0x3e804017	0.25048897
15	0x3d86de9a	0.06585427
16	0xbdc0777e	-0.09397791
17	0xbf5734b1	-0.84064776
18	0xbe290114	-0.16504318
19	0x3f60593b	0.87636155
20	0x3ecfeaef	0.40608928
21	0x3f69dec0	0.91355515
22	0x3ce51fa3	0.027969187
23	0xbf924ce5	-1.1429716
24	0xbed7d3cc	-0.42153776
25	0x3f6d492c	0.92689776
26	0x3edeafed	0.43493596
27	0x3e76b81c	0.2409367
28	0xbe07364d	-0.13204308
29	0x3db2511c	0.08706877
30	0xc009c61c	-2.1527166
31	0xbec0fef4	-0.37694514
32	0x3ea70424	0.32620347
33	0x3e5a2090	0.21301484
34	0xbf86e7b5	-1.0539461
35	0x3d2ab9e6	0.041681193
36	0x3f4d0d8c	0.80098796
37	0xbf184793	-0.59484214
38	0x3e3b0144	0.18262202
39	0xbf0685aa	-0.52547705
40	0xbeeee6d4	-0.46660483
41	0xbfa1c5e7	-1.263852
42	0xbed5ff99	-0.41796568
43	0xbea2dc95	-0.31808916
44	0x3f6f5ce5	0.9350112
45	0xbe1b3dc6	-0.15160283
46	0x3faf6da2	1.3705332
47	0x3ebd0a4d	0.3692192
48	0xbe2f637d	-0.17127796
49	0x3ff5f477	1.921523
50	0x3e35334e	0.17695352
51	0x3f7962d0	0.974164
52	0x3f419d77	0.756309
53	0x3f87a831	1.0598203
54	0x3d35f1ac	0.04441993
55	0xbeaca98c	-0.33723104
56	0x3ca35d33	0.019941902
57	0xbef08a5c	-0.4698056
58	0xbef38f71	-0.47570375
59	0xbf4372dd	-0.7634714
60	0xbfdd83d3	-1.7305855
61	0xbe871ea3	-0.2639056
62	0xbe2cc268	-0.16871035
63	0xbff79381	-1.934189

decoder.decoder.0.weight f4 [64, 32, 7, 7]
0	0xbcddab74	-0.027059294
1	0xbd95c783	-0.073134445
2	0x3d8b722f	0.06808888
3	0x3e25a1f1	0.16175057
4	0xbdb2b24e	-0.08725415
5	0xbdb02ee5	-0.086026944
6	0xbc1efbd8	-0.009703599
7	0xbe0214e1	-0.12703277
8	0x38627790	5.399395e-05
9	0x3e49bf65	0.19701917
10	0x3d87cdf4	0.06631079
11	0x3e1987dd	0.14993234
12	0x3d1a55bd	0.037679423
13	0x3df359be	0.11882351
14	0xbc984609	-0.018588083
15	0x3dd3f02d	0.10348544
16	0x3ebb3efd	0.36571494
17	0xbd7c65f1	-0.061620656
18	0x3e7afdff	0.24510954
19	0x3dfcdb2b	0.123464905
20	0xbc8c780a	-0.017147083
21	0xbcaa96db	-0.020823887
22	0xb9502835	-0.00019851404
23	0x3e5422c7	0.20716392
24	0xbda306b1	-0.07960261
25	0x3dd2b205	0.10287861
26	0x3e22651a	0.1585888
27	0x3e384b4e	0.17997476
28	0x3cafde63	0.021468347
29	0xbaf8eb42	-0.0018991011
30	0x3e5269db	0.20548193
31	0x3e321491	0.17390658
32	0xbdca1810	-0.09867871
33	0x3d85bacd	0.0652977
34	0xbd2a27bf	-0.04154181
35	0xbc7f7d6a	-0.015593866
36	0x3ea7ad1d	0.32749262
37	0x3e3d62c5	0.18494709
38	0x3d18fc68	0.03735009
39	0x3e4b5f0d	0.19860478
40	0x3e0d4b21	0.1379819
41	0x3d2e3668	0.042532355
42	0x3cab0d12	0.020880256
43	0x3df5827d	0.11987779
44	0xbd46b38b	-0.04851107
45	0xbe2eadfa	-0.17058554
46	0x3e85a11c	0.2609948
47	0xbdda2504	-0.106515914
48	0x3efc4b87	0.49276373
49	0x3bffd1ae	0.007806978
50	0x3cce54d2	0.02518693
51	0x3c6286f2	0.013826119
52	0x3c519239	0.01279121
53	0xbc8bdc0c	-0.0170727
54	0x3c0e0a00	0.008669376
55	0xbd146293	-0.03622682
56	0xbc15a38d	-0.009133232
57	0x3d6d0bb9	0.057872508
58	0x3ea35d79	0.3190725
59	0xbdce286a	-0.10066302
60	0xbe4a44fa	-0.19752875
61	0xbd836560	-0.0641582
62	0x3e69adb1	0.22820164
63	0x3d625d83	0.05526496
64	0xbd6e1c3b	-0.05813239
65	0xbd80890f	-0.06276142
66	0x3d6a6175	0.05722185
67	0xbc7f1433	-0.015568781
68	0xbe24f5d7	-0.16109405
69	0x3db36ce6	0.08761005
70	0xbc270a08	-0.010195263
71	0xbd87399f	-0.06602787
72	0x3bff26ea	0.0077866213
73	0x3bd611f7	0.0065329033
74	0xbdccc9ce	-0.09999429
75	0x3e05581a	0.1302189
76	0x3c032f08	0.008006819
77	0xbc36503a	-0.011127526
78	0xbd7dbacb	-0.061945718
79	0xbd0ed535	-0.0348713
80	0xbdc54396	-0.096320316
81	0xbe296dff	-0.16545866
82	0x3c773ebf	0.015090643
83	0x3e0c30b8	0.1369046
84	0xbc043dda	-0.008071387
85	0x3e191e1d	0.14952894
86	0x3da12bae	0.07869659
87	0x3c763d8f	0.015029325
88	0x3d41ff3d	0.047362555
89	0xbe699c48	-0.22813523
90	0xbc61369d	-0.013745931
91	0x3c57b177	0.0131648695
92	0xbc60d92d	-0.013723654
93	0xba1b90e5	-0.0005934372
94	0x3d2793f9	0.040912602
95	0x3d49cf42	0.049269922
96	0xbe6735dd	-0.22579141
97	0xbcb5b293	-0.022179877
98	0x3ca773c2	0.02044094
99	0x3dcb1045	0.099152125
100	0xbb3c6636	-0.0028747446
101	0x3e1c133e	0.15241715
102	0x3deeb1e2	0.11655022
103	0xbd812f8c	-0.06307897
104	0x3d27292a	0.04081074
105	0xbd1fda92	-0.039026804
106	0x3d93496c	0.071917385
107	0x3e90adf0	0.28257704
108	0x3db494e7	0.08817463
109	0xbdc7e248	-0.097599566
110	0x3dcdb833	0.10044899
111	0x3cfa8455	0.030580679
112	0xbe01514b	-0.12628667
113	0xbdc26f10	-0.0949384
114	0x3e42ef39	0.19036569
115	0x3dee9631	0.116497405
116	0xbdb87a2f	-0.0900768
117	0x3dfc3a20	0.12315774
118	0x3d8e6e72	0.069546595
119	0xb9653386	-0.00021858336
120	0x3ca8f8d7	0.020626469
121	0x3db70391	0.08936227
122	0xbd4c3362	-0.04985369
123	0xbdd88a26	-0.10573225
124	0xbd6a314e	-0.057175927
125	0xbbaaa61c	-0.00520779
126	0x3d3908a4	0.045174256
127	0xbdd75d52	-0.10515846
128	0x3d20d662	0.03926695
129	0x3e184833	0.14871292
130	0x3c85ab7d	0.016317124
131	0x3d0e9162	0.034806617
132	0xbe2e79eb	-0.17038696
133	0x3d0ae57b	0.033910256
134	0x3c9beb65	0.019033143
135	0x3e38a9bc	0.18033499
136	0x3ea8144d	0.32827988
137	0xbe15e01c	-0.14636272
138	0xbd735d6c	-0.059415266
139	0xbd91a37a	-0.07111259
140	0x3dc29d04	0.095026046
141	0x3c0023bb	0.007821019
142	0x3d9f6c55	0.077843346
143	0x3e56e1a5	0.20984514
144	0x3e87a909	0.2649615
145	0x3d89b12f	0.06723248
146	0x3db4fbf3	0.08837118
147	0xbdaa3b71	-0.08312119
148	0x3d16604a	0.036712922
149	0x3dbf03b9	0.09326882
150	0xbd27dd47	-0.04098251
151	0x3c83714f	0.01604524
152	0xbd8a72ab	-0.067601524
153	0x3d9c0fa7	0.07620173
154	0x3dcfbdcb	0.10143622
155	0x3caef0e1	0.021355094
156	0x3df1d237	0.118076734
157	0xbd5bf6e0	-0.053702235
158	0x3bba577f	0.0056867
159	0x3ea7800f	0.32714888
160	0x3d670544	0.056401506
161	0x3d77b027	0.060470726
162	0xbc21a74d	-0.009866548
163	0x3d54ad77	0.05192324
164	0xbd930b9e	-0.0717995
165	0xbe6152c9	-0.22004236
166	0x3e8f6224	0.28004563
167	0x3e3896c7	0.18026267
168	0x3ddbbebc	0.10729739
169	0x3bb0e2b9	0.005398121
170	0xbd882402	-0.06647493
171	0x3e6e8541	0.2329302
172	0x3e255ea6	0.16149387
173	0x3c9b2716	0.018939536
174	0x3e3d49c9	0.18485178
175	0xbd65e93a	-0.056130625
176	0x3d9833ac	0.07431731
177	0x3ddc4c52	0.107567444
178	0x3e873bb6	0.26412743
179	0x3cb96454	0.022630848
180	0xbd97c6bc	-0.074109524
181	0x3d8c4b7b	0.06850334
182	0x3d2b245c	0.041782722
183	0x3e7e7b42	0.24851707
184	0x3e008e62	0.12554315
185	0x3dc02764	0.09382513
186	0xbdcfd9b0	-0.101489425
187	0xbd9871f5	-0.074436106
188	0x3d1cfe8f	0.038328703
189	0x39c2bd1a	0.00037143455
190	0xbdac2396	-0.08405225
191	0xbc4e6123	-0.012596401
192	0x3e48b885	0.19601639
193	0xbe1c9ca6	-0.15294132
194	0x3ce42dea	0.027853925
195	0x3d847d62	0.064692274
196	0xbceb718e	-0.02874067
197	0x3cda5730	0.026652902
198	0x3c82e1f7	0.015976889
199	0x3ceeb0f0	0.029137105
200	0x3d5340d2	0.05157549
201	0x3de6f498	0.11277121
202	0xb9278997	-0.00015977617
203	0x3c853cb7	0.016264303
204	0xbdcd19e7	-0.10014706
205	0xbc8a5023	-0.016883915
206	0x3bf5bd52	0.0074993754
207	0x3d42a8f2	0.0475244
208	0x3d6f1f44	0.058379427
209	0x3c1679b2	0.009184288
210	0x3d151801	0.036399845
211	0xbda34dc8	-0.0797382
212	0x3cdc293e	0.026875135
213	0x3dcd5c8b	0.10027417
214	0xbe028182	-0.12744716
215	0x3e851e94	0.25999892
216	0x3ccee130	0.025253862
217	0xbc8005c4	-0.01562775
218	0xba8aaa5e	-0.0010579338
219	0x3de4bccf	0.11168825
220	0xbb84b0cf	-0.0040493975
221	0xbdbec320	-0.09314561
222	0x3e5a3522	0.21309331
223	0xbd89adf9	-0.06722636
224	0xbc642929	-0.013925829
225	0xbd9f71ed	-0.077854015
226	0x3d9abf9a	0.07556076
227	0x3dcbc538	0.09949726
228	0x3e48ff46	0.19628629
229	0x3e050164	0.12988812
230	0xbdb0be8c	-0.08630094
231	0xbc63a035	-0.013893177
232	0x3d6bc4bf	0.05756068
233	0xbd13363f	-0.035940405
234	0x3da78196	0.081790134
235	0xbe19a587	-0.1500455
236	0x3c8e7518	0.017389819
237	0xbdc37212	-0.095432416
238	0xbc8c9afa	-0.017163742
239	0x3d8d4068	0.0689705
240	0x3df7940a	0.12088783
241	0xbe059cc5	-0.13048084
242	0xbe411192	-0.18854359
243	0x3d70c2fe	0.05877971
244	0xbdab13e7	-0.083534054
245	0x3cc97998	0.024594113
246	0x3db418bc	0.0879378
247	0xbdd76b93	-0.10518565
248	0x3cc4b602	0.02401257
249	0xbca09dad	-0.019606436
250	0x3d749570	0.059712827
251	0xbccff5a1	-0.02538568
252	0x3ca1293e	0.019672986
253	0x3e783bfb	0.2424163
254	0x3e1e76f2	0.15475062
255	0x3e1dc587	0.15407382

decoder.decoder.0.bias f4 [32]
0	0x3effc8a1	0.49957755
1	0xbf37e1eb	-0.718291
2	0xbea1c1ad	-0.31593075
3	0x3f6213ed	0.88311654
4	0xbe13a0e2	-0.1441684
5	0x3e8a640b	0.27029452
6	0xbdbfcac0	-0.09364843
7	0xbf5014d9	-0.8128181
8	0x3e859b4e	0.2609505
9	0xbfa41ef8	-1.2821951
10	0xbe243fda	-0.16039982
11	0x3eed74c1	0.4637814
12	0xbf3796a8	-0.7171426
13	0x3e2e3a54	0.17014438
14	0x3dfe4d6f	0.12417113
15	0xbf885aef	-1.0652751
16	0x3ef407b8	0.4766214
17	0xbdf8d1b7	-0.12149375
18	0x3f14a3fd	0.58062726
19	0xbe711d68	-0.23546374
20	0x3e964584	0.2934991
21	0x3f0dabf9	0.55340534
22	0x3bbb51ef	0.0057165544
23	0x3e0fd56b	0.14046256
24	0x3f15bd52	0.58492005
25	0x3dbe1b68	0.09282571
26	0x3f0600e2	0.523451
27	0x3eaa6c80	0.33285904
28	0x3dfc102a	0.123077706
29	0x3f4c0c7a	0.7970654
30	0xbefb38e5	-0.49066845
31	0xbf35a595	-0.70955783

decoder.decoder.2.weight f4 [32, 16, 3, 3]
0	0xbd42fda8	-0.047605187
1	0xbdbedc11	-0.09319318
2	0xbd1a1630	-0.037618816
3	0x3ca4fbcb	0.020139595
4	0xbe4987a0	-0.19680643
5	0xbe1ae7f9	-0.15127553
6	0x3daed2e5	0.08536319
7	0xbd9d9420	-0.07694268
8	0xbe021130	-0.12701869
9	0x3e804986	0.25056094
10	0xbcab8b1d	-0.020940358
11	0x3d834e16	0.06411378
12	0x3e4a3b76	0.19749245
13	0x3d94a6a4	0.07258347
14	0x3eb92264	0.3615905
15	0xbd410d7f	-0.04713201
16	0xbe18a3da	-0.14906254
17	0xbd4afd6b	-0.049558084
18	0xbe47c311	-0.19508006
19	0x3e11cc23	0.14238028
20	0x3e1a42e9	0.15064587
21	0xbdebe40e	-0.11518107
22	0x3ded0c2a	0.11574586
23	0x3ed05fe4	0.4069816
24	0xbec6698b	-0.38752398
25	0xbd92ad92	-0.07162012
26	0x3db962a3	0.090520166
27	0x3d6d17db	0.05788408
28	0xbe6bc8d1	-0.23025824
29	0xbd8f6392	-0.070014134
30	0x3da2064d	0.07911358
31	0xbcaa54ed	-0.020792449
32	0x3d9f6af5	0.07784072
33	0xbe5ae747	-0.21377288
34	0xbe547a62	-0.2074981
35	0xbda11f6f	-0.078673236
36	0x3e11fc78	0.14256465
37	0xbe5eba6f	-0.21750806
38	0xbe452a57	-0.19254433
39	0x3e50cabf	0.20389841
40	0x3e0a960e	0.13533804
41	0xbd7f959c	-0.062398538
42	0xbdc81787	-0.097701125
43	0x3e706d8b	0.23479287
44	0xbe85bee2	-0.26122195
45	0xbe1adb4f	-0.15122722
46	0x3e836ec1	0.25670436
47	0x3cd61cb0	0.026136726
48	0x3e120f58	0.14263666
49	0xbe01d90a	-0.1268045
50	0xbca67357	-0.02031867
51	0xbda0ca08	-0.078510344
52	0x3e074a60	0.13211966
53	0xbe8f85e2	-0.28031832
54	0x3df347ca	0.11878927
55	0xbe11d577	-0.14241587
56	0xbe2146dd	-0.15749688
57	0xbe3dc8ae	-0.18533584
58	0xbe7b61be	-0.24549004
59	0x3e04d319	0.12971152
60	0xbd77cd02	-0.060498245
61	0x3e09f70a	0.13473144
62	0x3e2f5254	0.1712125
63	0x3dab71b5	0.08371297
64	0x3ed8a0d2	0.42310196
65	0xba966516	-0.0011474218
66	0xbd84d534	-0.06485978
67	0x3e967f5e	0.29394048
68	0xbd9b750c	-0.07590684
69	0xbda59d52	-0.08086647
70	0xbc45b835	-0.012067844
71	0x3e2005e9	0.15627255
72	0xbd9c1e33	-0.076229475
73	0x3e843f66	0.2582962
74	0x3e63f69b	0.22262041
75	0xbe149337	-0.14509283
76	0x3e2d0794	0.16897422
77	0x3ea020eb	0.31275114
78	0xbe45fcd6	-0.1933473
79	0xbdaf4013	-0.08557143
80	0x3da1dc6b	0.079033695
81	0x3e4d6d4e	0.20061228
82	0x3d779e90	0.06045395
83	0x3e68d40d	0.22737141
84	0x3e4aef82	0.19817927
85	0x3e494a14	0.19657165
86	0x3de75119	0.11294765
87	0x3e665cd6	0.22496352
88	0x3d0369f8	0.03208348
89	0xbd4f8200	-0.050661087
90	0x3e615fbe	0.22009179
91	0x3e6a7264	0.22895199
92	0x3ddf169a	0.10892983
93	0xbe1916be	-0.14950082
94	0x3e2ce9e0	0.16886091
95	0xbdb90a06	-0.09035115
96	0xbe63cab6	-0.22245297
97	0xbd8ead6f	-0.069666736
98	0xbe76f15f	-0.24115513
99	0x3d40a9f9	0.0470371
100	0x3e276313	0.16346388
101	0x3ca5c833	0.020237064
102	0x3e67e606	0.2264634
103	0xbecbbfee	-0.39794868
104	0x39c0a3b0	0.0003674305
105	0x3e0c7cef	0.13719533
106	0x3e8a8056	0.27051038
107	0x3c3df902	0.011595013
108	0x3d0c0a5c	0.034189567
109	0x3dd6064a	0.10450418
110	0xbdae4c9a	-0.08510704
111	0x3d89832e	0.06714474
112	0x3e5c7e9f	0.21532677
113	0xbe0e57ea	-0.13900724
114	0x3e4c207d	0.19934268
115	0x3e193b62	0.14964059
116	0x3ce68c04	0.028142937
117	0x3e4a9b2a	0.19785753
118	0xbe2df5e1	-0.16988327
119	0x3e16a02f	0.14709543
120	0xbd5dc7c6	-0.054145597
121	0x3e06adab	0.13152187
122	0x3e0d927c	0.1382541
123	0x3d5aa0b9	0.053375933
124	0x3ddf93c0	0.10916853
125	0xbdfaeb5e	-0.12251924
126	0xbc72fca1	-0.014830739
127	0x3dc6639c	0.09686968
128	0x3d2bf966	0.04198589
129	0xbe1c9fdb	-0.15295355
130	0x3c86b219	0.016442345
131	0xbe55e99f	-0.208899
132	0xbdf1fbe4	-0.118156224
133	0xbe669bda	-0.2252039
134	0xbe843260	-0.25819683
135	0x3e6c0506	0.23048791
136	0x3e946e85	0.2899057
137	0x3d767edb	0.060179573
138	0x3eaaf46d	0.33389607
139	0x3e93eb29	0.2889035
140	0x3e1c7eae	0.152827
141	0xbe6e0f3b	-0.23247997
142	0xbef15948	-0.4713843
143	0xbdc41ccc	-0.09575805
144	0x3e12c912	0.14334515
145	0x3e394d37	0.18095861
146	0x3dd693b1	0.10477389
147	0x3e4245f7	0.18972002
148	0x3eb743cf	0.3579392
149	0x3e912854	0.2835108
150	0x3e3dff84	0.18554503
151	0x3e9194da	0.28433877
152	0x3e15786a	0.14596716
153	0xbde78a8c	-0.113057226
154	0xbd5ed310	-0.054400504
155	0xbd8dc90a	-0.06923111
156	0x3c067299	0.008206033
157	0xbd7de363	-0.06198443
158	0xbe103a12	-0.14084652
159	0xbd92a96b	-0.0716122
160	0xbd23b8c9	-0.039971147
161	0x3d958fd2	0.07302822
162	0x3da5a8b7	0.080888204
163	0x3d14218f	0.036164816
164	0xbd458fc7	-0.04823282
165	0x3daadce5	0.083429135
166	0xbda17212	-0.07883085
167	0xbdea2fb5	-0.11434881
168	0xbb5546b7	-0.003254337
169	0xbdc0e58e	-0.09418784
170	0x3c82bf28	0.015960291
171	0xbdf52f44	-0.11971906
172	0xbe39b68c	-0.18136042
173	0xbc84d5a1	-0.016215147
174	0x3ce34a0c	0.02774527
175	0x3ea3334a	0.31875068
176	0xbe2226cd	-0.15835114
177	0xbd283635	-0.04106732
178	0xbe931d60	-0.2873335
179	0xbdd4094f	-0.10353338
180	0xbdb8e1cc	-0.09027442
181	0xbe36af8a	-0.178404
182	0x3ccb6c4a	0.02483191
183	0xbd709ee0	-0.058745265
184	0xbdcf9ae7	-0.10136967
185	0xbdc3c270	-0.095585704
186	0xbe069026	-0.13140926
187	0xbd1df238	-0.038561076
188	0x3d97853e	0.07398461
189	0xbd351a75	-0.044214685
190	0xbce51274	-0.0279629
191	0x3d55e0a5	0.05221619
192	0x3d4990a0	0.04921019
193	0xbc5d035e	-0.013489572
194	0xbd859019	-0.06521625
195	0x3ce7186b	0.028209886
196	0x3d850e67	0.06496888
197	0x3dd14bbc	0.10219523
198	0x3df50b93	0.11965098
199	0xbd9c6554	-0.07636514
200	0xbc0ec249	-0.008713313
201	0xbd40a61e	-0.04703342
202	0x3c2ceefc	0.010555025
203	0xbcef22a6	-0.029191326
204	0x3bd17528	0.00639214
205	0xbdef5f89	-0.11688144
206	0xbd55f107	-0.052231815
207	0x3ccf3e8a	0.025298376
208	0x3b90bfe2	0.0044174055
209	0xbda60ced	-0.08107934
210	0xbd512821	-0.05106366
211	0x3bfeec68	0.0077796467
212	0x3d95cfd3	0.0731503
213	0x3c9e4db5	0.019324163
214	0xbb0c4892	-0.002140556
215	0xbd42c013	-0.047546457
216	0x3db6b971	0.08922089
217	0x3cc4d3c0	0.024026752
218	0xbd42521b	-0.047441583
219	0x3dab2719	0.08357067
220	0xbe01b67f	-0.12667273
221	0xbdd1603c	-0.102234334
222	0x3cccf39a	0.025018502
223	0xbd8f29a5	-0.06990365
224	0x3c9a97be	0.018871184
225	0xbd1c36e4	-0.038138285
226	0xbccce54f	-0.025011687
227	0x3cdc866c	0.026919566
228	0xbdb523b1	-0.08844698
229	0xbcad406a	-0.02114888
230	0x3c8a2b94	0.016866483
231	0xbd74a85f	-0.059730884
232	0xbbcaf3af	-0.0061936
233	0xbd34d2c2	-0.044146307
234	0xbdaf5cb0	-0.085626006
235	0xbd92ec1c	-0.071739405
236	0xbd916374	-0.07099047
237	0xbd7be4ee	-0.06149762
238	0xbda7ae48	-0.081875384
239	0xbd53535e	-0.051593177
240	0xbdb50828	-0.08839446
241	0x3c80d6f2	0.015727494
242	0xbdda5bf0	-0.10662067
243	0xbd9a6e0c	-0.07540521
244	0xbd9d0ab4	-0.07668057
245	0x3ab9edf3	0.0014185294
246	0xbea8faa1	-0.33003715
247	0xbdd0ff66	-0.102049634
248	0xbd5d6abc	-0.054056868
249	0xbe198d23	-0.14995246
250	0xbd99b98a	-0.07506092
251	0xbdb87576	-0.09006779
252	0x3d4edcf2	0.05050368
253	0x3dd3ad08	0.103357375
254	0x3d57de82	0.052702434
255	0xbde612a8	-0.11234027
