data/decoder_weights.pth (torch, 423448 bytes, 5 tensors)

decoder.0.weight f4 [64, 32, 7, 7]
00000000: 34e0 843d 7b5f a03c 9b6c d43d 28d0 8cbe
00000010: ae7a 2d3d 5340 1d3e 1960 433d 1e26 9ebc
00000020: c3bd e33d f7d0 06bc 00a4 0fbe 9d4d 6a3d
00000030: f79b 703d cf2f 033e 9669 04bd 7473 003c
00000040: 3fca 8ebe a04e 983e 7580 80be bdc9 623d
00000050: ee59 d9bc eaa6 a9bd 5248 663d be03 2e3e
00000060: 8564 02be 6daa 0abe 88de cc3e 5032 253e
00000070: 5af6 993d 5335 a6bb 37e8 0cbe 2019 3cbd
00000080: 563b 72be 14b9 a2bc 1234 b23d e514 07ba
00000090: 9a8f e6bd 2f2a 653e 5da5 69be 7536 36be
000000a0: fbae aebd 38c8 00be c613 9b3d ea69 283e
000000b0: ed39 043e ae8e dd3e 5480 a93e 9790 823e
000000c0: 789d 56bd cfbb cd3d 3219 513e 400a 633e
000000d0: cf73 b53d 544d 22bc c2f1 5fbe 0805 893c
000000e0: cce1 c7bc aff1 19be 75c6 1fbd 13e6 48be
000000f0: 9b9b 433e 956a 88bb 8ba0 0dbd 39af 55bd
00000100: c35a 93bc ae69 093e 1e50 c5be b423 1f3e
00000110: 9886 e8bd a8ff dbbd 1464 1fbd 370a d5bd
00000120: a203 533e 4ae2 b53d bf2e 283e c865 62be
00000130: 6009 b0bc b675 1fbd ceb4 97bd f106 6f3e
00000140: c470 233e 0311 4dbe eeea c1bc 6c45 093e
00000150: e583 2a3e 364a 88bd b783 ccbc ea3c 373d
00000160: bfb8 87be 826e 173b 6839 de3d ccac 60bc
00000170: 70df 7f3d 138c e03d 5629 c93d d006 2bbe
00000180: 7c21 9e3d de70 493e 3f7f b03d 7319 4fbd
00000190: 4de9 0a3d 03ed 5f3d d605 c13e 6908 3e3c
000001a0: 967c f13c 98dc 0abe 49a3 89bd 8f60 81be
000001b0: c15c e6bd c566 053e ca3f 783d 5c02 dbbd
000001c0: 54ca a03c 6be1 513d f1e7 623e 6a44 76bd
000001d0: 21c9 943d b1a2 dd3d 3ebd b53d 39d9 b8bd
000001e0: 86df 2fbe e60a 9dbd 8d22 343d 3c6e 1c3e
000001f0: be5c ddbb 9878 c7bb eef8 93bd 1e01 2ebe
00000200: 19bd 093e a708 d0bd b6d7 6e3e 0e5e 93be
00000210: d23b ef3d 7839 293d 752e 083d 7c31 dfbb
00000220: bf87 5e3e 8192 c0bd 2503 5f3e 00c6 953d
00000230: 4db7 24bd 7f9d 92bd 20fb 843d c9d9 0d3e
00000240: 68aa b1bd f278 e53c e526 623e dab2 84bd
00000250: 06b3 973e 0dc1 693d 947e 2d3e d1f7 26bd
00000260: 1412 863e 45e6 493d 93d6 703d 51b0 23bd
00000270: 24b3 793d 3599 89bd 8e93 273c a04b 49bd
00000280: 52c3 36bc 39d8 69bc c4e3 2a3e ac34 0d3e
00000290: 882d 323e b3c7 5abe 9750 02be 616d 9b3d
000002a0: ec7a bb3d da49 413e d92a 603e ad1c f83d
000002b0: 01ef dcbc ac70 ea3d 893a d03c dd84 1a3d
000002c0: 0e05 ddbd 6f43 ebbc 7528 443d da53 333e
000002d0: 96e1 9abd 8413 20be b6ee d13d ae73 1a3e
000002e0: 913a 06bd 48eb fdbd 056e 33bd d0dc 24bc
000002f0: 7bfb 443e 7b75 35bc 626b 923d 35d0 a03e
00000300: e062 2c3e 4d26 aa3d 7a4f 84be cad6 a2bd
00000310: 945e 45bb 7e6d ca3d 2142 a63e cdc0 91bd
00000320: 7e5e ddbd 8440 f53d 3299 4abd 2683 43be
00000330: 4962 253d 2ede 1a3e 5418 87bd 4e07 ac3b
00000340: c90c ccbd f6e4 f83d 1083 d43c 40f5 113c
00000350: 55a1 7b3e f35f 873e 22a1 7fbe 7565 df3d
00000360: 97f6 2abd 6b95 533d c20a 1b3e b224 333e
00000370: eff6 14bd a95e 0e3c fb42 873e 6e62 4abd
00000380: 6383 6c3e 33bd 9cbd 3229 46bd ef3d 933e
00000390: 22a2 d53c 930f 123e be0e efbd 087c 7e3e
000003a0: 5dc6 bfbc 72ec fdbc 8a58 84be fc4c 3b3d
000003b0: 4fd0 04be 3fa7 d03a f2a4 6cbe 8d24 71bd
000003c0: 05ba 843c cdfa 953d 30a2 11bd f2e8 07be
000003d0: 842a 2abe d091 0abe 7817 283d 84bd 3dbe
000003e0: 9652 e5bd 90ac c43d 4b45 373e 1bb7 233e
000003f0: 0c79 d4bc 6ac2 19bb 7449 b4be 3ce2 f5bc
0.06488076 0.019576779 0.10372277 -0.2750256 0.042353325 0.15356569 0.047699068 -0.019305285
0.111201786 -0.008228532 -0.14027405 0.057202924 0.05874249 0.12811206 -0.032327257 0.007840026
-0.27888677 0.29747486 -0.25098005 0.055368174 -0.02653214 -0.082837895 0.056221314 0.16993615
-0.12733658 -0.13541575 0.40013528 0.16132474 0.07517691 -0.0050722747 -0.13760458 -0.0459224
-0.23655447 -0.019863643 0.08701338 -0.0005152955 -0.112578586 0.22379373 -0.22816987 -0.17794211
-0.085294686 -0.12576377 0.07572131 0.16446653 0.12912722 0.43272918 0.3310572 0.25500938
-0.052396268 0.10045587 0.20419767 0.22171879 0.08859979 -0.009906132 -0.21869567 0.016726032
-0.02439966 -0.15033601 -0.039007623 -0.19619016 0.19102328 -0.004163096 -0.034576934 -0.05216906
-0.017987614 0.1341922 -0.38537687 0.15540963 -0.11353797 -0.10742122 -0.0389138 -0.10402339
0.20606855 0.08881052 0.16424082 -0.22109139 -0.021488845 -0.038930617 -0.07407533 0.23342492
0.15960985 -0.2002602 -0.023671594 0.13405389 0.16651876 -0.066547796 -0.02496515 0.044735827
-0.26508138 0.002310664 0.10850793 -0.013713073 0.062468946 0.10964217 0.09822337 -0.16701818
0.077212304 0.19671962 0.0861802 -0.05056138 0.0339139 0.05466939 0.37699765 0.011598685
0.029478353 -0.13560712 -0.06720597 -0.2526898 -0.1124816 0.13027485 0.06060771 -0.106938094
0.019627728 0.051240366 0.22158791 -0.06012384 0.07264925 0.108220465 0.08873986 -0.09025807
-0.17175111 -0.07668094 0.043978263 0.15276426 -0.0067554405 -0.006087374 -0.07225214 -0.16992614
0.13451041 -0.101579 0.23324475 -0.28782696 0.11681332 0.041314572 0.03324743 -0.006811319
0.2173147 -0.094029434 0.21778543 0.07313156 -0.04021387 -0.07158946 0.06493211 0.1385261
-0.086750805 0.028011773 0.2208515 -0.06479426 0.29628772 0.057068873 0.16942817 -0.04076368
0.26185668 0.049291868 0.058798384 -0.03996307 0.060961857 -0.06718675 0.010228051 -0.049144387
-0.011154966 -0.014272743 0.16688448 0.13789624 0.17400181 -0.21365242 -0.12726055 0.07589222
0.09154305 0.18875828 0.21891345 0.121148445 -0.026969435 0.11447272 0.025418537 0.037724365
-0.1079198 -0.028718678 0.047890145 0.17512456 -0.07562558 -0.15632445 0.102506086 0.15083191
-0.032770697 -0.12398392 -0.043806095 -0.010062411 0.19236557 -0.011075373 0.07149388 0.3140885
0.16834593 0.083080865 -0.25841886 -0.07951124 -0.0030116187 0.09884165 0.32472327 -0.07116852
-0.108090386 0.11975196 -0.049462505 -0.19092998 0.040376935 0.15123817 -0.06596437 0.005249894
-0.09963376 0.12153046 0.025941402 0.00890857 0.24573262 0.2644039 -0.24963811 0.10908023
-0.041739073 0.051656168 0.15140823 0.17494467 -0.036368307 0.008689561 0.2641829 -0.049410276
0.23096995 -0.076532744 -0.04837913 0.2875819 0.026078288 0.14263754 -0.11672734 0.24852002
-0.023410017 -0.030996535 -0.258488 0.045727715 -0.12970088 0.0015918984 -0.23109797 -0.05887275
0.016201982 0.07323227 -0.035555065 -0.13272455 -0.16617781 -0.13532186 0.041038007 -0.18529326
-0.11197393 0.09603226 0.17897527 0.15987818 -0.025936626 -0.0023461827 -0.3521229 -0.030015104

decoder.0.bias f4 [32]
00000000: b9e6 65be 78f0 35be 48e7 62be 509c b43e
00000010: a87a b03d e183 37bf 3312 9c3e f2ff b43e
00000020: ff68 1a3f 76f7 1dbf 6db1 1d3f 0e50 ebbe
00000030: abc3 c9be 93e9 173c c204 113e 3439 30be
00000040: c653 c5be 447d 6ebe 8c18 f0bd 078c ae3e
00000050: 8443 d1be a5c1 eebe a61e 2fbe a915 b5be
00000060: ba41 0c3e f657 e0be c10c e0be 6d02 d1bc
00000070: e621 093c caf6 933e b302 5d3e e5c6 c43e
-0.22451295 -0.17767513 -0.2215854 0.35275507 0.08617145 -0.71685606 0.30482635 0.3535152
0.6031646 -0.6170572 0.61598855 -0.45959514 -0.39407095 0.009271997 0.14161971 -0.17209321
-0.38540477 -0.23289973 -0.11723432 0.34091207 -0.40871823 -0.46632114 -0.17101535 -0.35368088
0.13696948 -0.4381711 -0.4375973 -0.025513852 0.008369898 0.28899223 0.21583061 0.38432994

decoder.2.weight f4 [32, 16, 3, 3]
00000000: 2810 eabd b531 863d cf2f 72bd f49d 6dbd
00000010: e38c e63d 927a a53d d1cb f13d 2cf5 fc3d
00000020: 93da 10bc fb0a 4fbd f21a 22bd 385c 473e
00000030: cbed 493e 4c8f da3d 5446 d03c 987c 1539
00000040: cda7 153e f2cc a33c 899f 38be 93a2 8cbe
00000050: 7213 8fbc e4ae f7bd 7530 eb3d c993 183e
00000060: 6c68 e83c 3466 5ebc cae1 b33d 31d0 6f3d
00000070: 2ea9 d33d 1ce7 87be b0c8 9d3d 2137 23be
00000080: aae0 e2bc d29e d53b 5e28 1ebd fe54 c43d
00000090: 498f eb3b f0a0 733e 1327 c33d b41e 0a3e
000000a0: 5c9b 133e c282 6ebd 74d8 62bd 8215 fcbd
000000b0: 49f3 ccbd 1a8d 8bbe 02ca a5be 21a6 47be
000000c0: 241d f03d 9b87 823d c087 b5bd 27e3 0c3d
000000d0: 4fbd 1b3d 1cb4 0c3c 98d3 38be 29aa 773d
000000e0: 4a2b 203e 38fd 16be 8788 283e 5ad0 14be
000000f0: 6205 933c 584f 493d 16f6 2c3d 158d a3bd
00000100: 030b 45bd a4a7 01be a6e8 49be af8c fbbd
00000110: d298 8e3d c64c eabd 0ab4 7d3d 7c00 0fbb
00000120: b1e1 e6bb 6802 58bd 05f5 cabd 93f9 2d3c
00000130: dcfb 333e 54f4 b5bd 2016 893d a511 053e
00000140: 434f 17bc 4849 6c3d 4d2a adbd 0435 bfbc
00000150: 36de 9e3d bdb6 91bd 9c16 ea3a 986e 45be
00000160: 8224 5dbd 8be4 e93c d960 87be 13a2 eebd
00000170: 7c97 343d e351 02bc 7d8b 483e a51f e33d
00000180: 6c58 cf3d 45e0 efbb 33db 4fbd 48ad 2bbd
00000190: 19a0 3c3d 4e6c 8c3e b2e9 8d3e 7626 31be
000001a0: aa64 643d 2a9c 4f3d 0d77 cd3d 0bb6 c13c
000001b0: a3a1 1d3e 3f27 283d 8f98 57bb 66a3 a8bc
000001c0: bfc8 a2bd 536b 6dbd deb7 44bc ff0b 2bbd
000001d0: a372 3e3d 7b8c 443d 0ca8 26be 157d 083d
000001e0: 1932 103e 3afb 47be 37d5 253e d918 df3d
000001f0: c6c4 61be d23e fbbc 1ee2 e43c 03cb a23e
00000200: 5723 743e 3584 253e 6f8f 573d 215e 01be
00000210: 9718 0ebe 30cc 9dbd 95a0 bdbd 0806 0b3e
00000220: 83ea 4abe c0cd ca3d a4a1 8b3d b1d9 24be
00000230: 4dd3 d73d 7276 1dbd 58b5 b0bc d878 e53d
00000240: f3e1 6dbc 8f05 d6bc eaca 273c 97ce 0ebe
00000250: 62da a53d 33c5 763d b0d8 f03d 0c35 fc3d
00000260: 8c25 8139 d0b7 9fbe 7ad1 473e 81c2 973d
00000270: 4480 ffbd 235f 9c3e c666 2d3e 50b3 a7bd
00000280: e993 fdbc afa8 a83d dc6d 37bd 7d08 0dbf
00000290: 3ccd 953e fcc2 e5bb 1fe1 dfbd 8cd3 0abe
000002a0: 3167 dcbd 319b 8bbe 2b76 a83e 5387 3e3e
000002b0: 4fa9 bdbd 5e2b 003d 7fb9 5b3e ffb0 b2be
000002c0: b6ae e73b 21ab a33e 23f3 51be 4c13 073e
000002d0: dacc 613d 9582 583d 4600 afbd 59df 903e
000002e0: 51d8 543d ed9f 12be d653 9e3e 79ff 833e
000002f0: f7f3 03bd 87a7 6cbe 5e2f c5bc b860 a53e
00000300: 03d4 6a3b 35d6 cb3e 2056 f3bd ac16 75bd
00000310: eca7 0bbc eab5 253e e0bc a53d 830a 043f
00000320: 6e85 283e c99b 033e b85a 9abe 07c5 623e
00000330: 0a79 953c 5d00 c73e aa10 6bbd d226 d8bc
00000340: 8680 b83d 502d afbd c1d6 8abe 9f9a 563e
00000350: 3e08 c53d 6e00 2abe 7442 303d 32d0 f93d
00000360: 0315 663e e71f a2bd 4a3e 78be 6eb7 853e
00000370: 0462 863e dbdb 38be 6dca 813e 9584 663e
00000380: 0273 733d 0609 b93c ab81 4cbd 3907 59be
00000390: 36e6 693d 6eb8 f33c 8bd3 073e aab8 3abe
000003a0: e0d1 d03d b721 0f3e ef4c 38be b694 063e
000003b0: b174 8e3e f062 d8be 0dad c9bd c3de f83e
000003c0: 2a4e 23be 9c84 fb3d 3907 cd3d ae9a 5c3c
000003d0: e728 013e 1966 3d3e 5755 ecbd b240 d23e
000003e0: a5e4 b63d 3636 88be eb34 b4bd 2505 2ebc
000003f0: 1c51 9ebd 6967 c83d d305 10be c01d ca3d
-0.11428863 0.065524496 -0.059127625 -0.058011964 0.11257341 0.08080019 0.11806453 0.1235145
-0.008841175 -0.05054758 -0.03957648 0.19468772 0.19719617 0.10671863 0.02542416 0.00014256162
0.14614792 0.019995186 -0.18029608 -0.27467784 -0.017465327 -0.120939046 0.11483852 0.14900126
0.028370105 -0.013574172 0.087833 0.058548156 0.10335003 -0.2654351 0.07704294 -0.15938999
-0.027695019 0.006519177 -0.038612716 0.095865235 0.007188712 0.23791862 0.09528937 0.13488275
0.14414734 -0.05823017 -0.055382207 -0.1230879 -0.100073405 -0.2725609 -0.32380682 -0.19496967
0.11724308 0.06373521 -0.08863783 0.034396317 0.038022336 0.008587863 -0.18049467 0.06046501
0.15641513 -0.14745033 0.16458331 -0.14532605 0.017946903 0.049147934 0.042226873 -0.07985894
-0.048106205 -0.12661606 -0.19717655 -0.12282693 0.06962742 -0.114404246 0.061939277 -0.0021820357
-0.0070459475 -0.05273667 -0.09910015 0.010618585 0.17576545 -0.088844925 0.06693673 0.12995012
-0.009235206 0.057687074 -0.08455334 -0.02334071 0.07757227 -0.07114933 0.0017859521 -0.1928047
-0.053989895 0.02855136 -0.26441076 -0.11652007 0.04408978 -0.007954094 0.1958446 0.1109002
0.10124287 -0.007320436 -0.050746154 -0.0419133 0.04605112 0.2742638 0.27717358 -0.17299828
0.055760063 0.05068604 0.10032473 0.023646375 0.15393691 0.041053053 -0.0032897328 -0.020585727
-0.079484455 -0.05796368 -0.012006728 -0.041759487 0.046496045 0.047985535 -0.16275042 0.033322413
0.1408161 -0.19529429 0.16194616 0.10893411 -0.2204772 -0.030669603 0.027939852 0.3179551
0.23841606 0.16163714 0.052627023 -0.12633564 -0.13876568 -0.07704961 -0.09259144 0.1357652
-0.19816022 0.09902525 0.0681794 -0.16098668 0.10538349 -0.038443036 -0.021570846 0.1120469
-0.0145192025 -0.026125697 0.01024125 -0.13945995 0.08098294 0.060246658 0.1176008 0.123148054
0.00024632772 -0.31194925 0.19513503 0.074101456 -0.124756366 0.30541334 0.16933736 -0.08188498
-0.030954318 0.08235299 -0.044782504 -0.5509108 0.29258144 -0.0070117693 -0.1093161 -0.13557261
-0.1076187 -0.2726684 0.32902655 0.1860631 -0.09260809 0.03129136 0.2145748 -0.34900662
0.0070703877 0.31966498 -0.20502906 0.13190955 0.055127002 0.052858908 -0.08544974 0.282954
0.051964108 -0.1431882 0.30923337 0.25780848 -0.032215085 -0.23110782 -0.024070438 0.32300353
0.0035831935 0.39811864 -0.118816614 -0.059836075 -0.008523922 0.16182676 0.08092666 0.5157854
0.1645715 0.12852396 -0.30147338 0.22145472 0.018246192 0.38867465 -0.05738894 -0.026385698
0.09008889 -0.085535645 -0.2711697 0.20957421 0.09620713 -0.16601726 0.043032125 0.12197913
0.22468953 -0.07916241 -0.24242511 0.26116508 0.26246655 -0.18052618 0.2534975 0.22511514
0.059435852 0.02258731 -0.04992835 -0.21194161 0.057104312 0.029751029 0.13264291 -0.18234506
0.101962805 0.13977705 -0.17998098 0.13142666 0.27823403 -0.42262983 -0.0984746 0.48607454
-0.15947786 0.122811526 0.10011143 0.013464613 0.1261326 0.18495978 -0.11539715 0.41064984
0.08930329 -0.2660386 -0.08799156 -0.010621344 -0.07730314 0.09785349 -0.14064722 0.098689556

decoder.2.bias f4 [16]
00000000: 11a8 173f a3b4 f03d ff08 d23e 67a5 ae3e
00000010: b779 83bd 3b02 c23e c1af e83d c817 e93e
00000020: f636 0abf 3821 debe 46ca d43e e1aa 46be
00000030: 430c 99be ff52 9b3e 0685 1ebd 6e21 123f
0.59240824 0.11753204 0.41022488 0.34110567 -0.064197 0.37892327 0.113616474 0.45525956
-0.53990114 -0.4338472 0.41560572 -0.19401123 -0.29892167 0.30336758 -0.03870108 0.5708226

decoder.4.weight f4 [16, 1, 3, 3]
00000000: 622d db3d bab9 923c 09cb 083d 6156 f63d
00000010: 9f55 b1be 6494 85be 2f3a 3b3e 1f44 66bd
00000020: 0212 15be 7cae 743c 8cd1 9b3c 4704 b53c
00000030: 2e59 33be 3bc1 bbbe f578 43be 4670 4abe
00000040: 95f9 babe 00ed 2cbe cea5 1abe 767b b0be
00000050: 7237 12be ead6 83be f0ec 10bf 1b7e 80be
00000060: 194b 26be 4825 c2be 5592 21be 4df7 a1be
00000070: 4a1e 11be 883e 213e 1949 a5be 4ae5 723d
00000080: c7c6 c23e 46ef 82bd 038a 463e 95bf 813e
00000090: 4b5a 543e ee15 b93e 8060 d43d 5ad1 8d3e
000000a0: 16f2 d03e 7029 f43c 0168 20bd 796f 16be
000000b0: dcc3 1bbe 27ba 34be 4a6e c0be 5b04 50be
000000c0: 7dd7 44bd bb4a a5be b44b 55be 8f1d fcbd
000000d0: 30ad 98be 1aa4 20be 9f4c b8bd c78f c2be
000000e0: 2da8 a2be 1fb5 89bd f56f e8be bab1 b3be
000000f0: 6bf2 853c 32eb 24be 3cf2 f2bd a181 a6bd
00000100: 3a6d 22be 0dd4 3fbe a304 97be 75b7 09bf
00000110: 59b7 bbbe 756f e4bd 4a5d 8abe fbe9 15be
00000120: f701 323e 0ac2 123e d755 98bd f10d a33e
00000130: f951 bf3e 8f4d d13c e572 813e 2638 b93e
00000140: 673e f53d 6e8e e73d e0a2 403e 60f7 673e
00000150: 962d 243e 7792 1d3e 7291 a83e a296 2f3e
00000160: 3df9 283e f836 523e 77cc e2bd f3ba 04be
00000170: 7c0a 1cbe 0b89 cfbe 9e8f b5be 0f6b 85be
00000180: 627b a0be ed04 9cbe 101c 2ebe b049 363d
00000190: 9eff 853c 8fc8 83bc 3197 643e aa47 ad3e
000001a0: f92d 263e 2591 833e a89f cd3e f70c 5f3e
000001b0: eca0 4fbd 2cd0 a43d b859 acbc 8efe 073e
000001c0: 1570 d73e 2224 ab3d 183a 0e3e b5a2 913e
000001d0: a7b2 b4bc c41a ea3c da76 833c ab84 37bd
000001e0: b11d 55bd 24a4 74be 2955 a9be d76d 35be
000001f0: 407d babe 2701 a0be e946 6c3e 1dff cd3e
00000200: 934e 6d3e 4c66 a03e a4fa c53e 7c10 fd3d
00000210: 470f fb3d d00c 653d d03e bbbd 66c7 cdbc
00000220: 1b69 43be 1336 44be d67e 3ebe 53af 05bf
00000230: 5bd8 bdbe 9a84 adbd 6754 77be adcd 31be
0.107020155 0.017910827 0.033396754 0.12028194 -0.34635636 -0.26089776 0.18283914 -0.05621731
-0.1455765 0.014934178 0.019020818 0.022096766 -0.17514488 -0.3667086 -0.1908911 -0.19769391
-0.3651854 -0.16887283 -0.15102312 -0.34469193 -0.14278963 -0.25749904 -0.5661154 -0.2509621
-0.16239585 -0.37919068 -0.15778477 -0.31633988 -0.1417171 0.1574651 -0.32282332 0.0593007
0.3804228 -0.06393294 0.19388585 0.25341478 0.20737569 0.36149544 0.103699684 0.27698785
0.40809697 0.029804915 -0.039161686 -0.14690961 -0.15211433 -0.17649136 -0.37584144 -0.20314161
-0.04805707 -0.32283577 -0.2082966 -0.12310325 -0.29819632 -0.156876 -0.08998989 -0.38000318
-0.31768933 -0.06723999 -0.45397916 -0.35096532 0.016350945 -0.16105345 -0.11862609 -0.081301935
-0.15861979 -0.18733235 -0.29495725 -0.5379556 -0.3666332 -0.11154071 -0.270243 -0.14640038
0.17383562 0.14331833 -0.07438248 0.31846574 0.37367228 0.025549678 0.2528297 0.3617565
0.11974793 0.11306463 0.18812132 0.2265296 0.16033015 0.15387903 0.32923466 0.17147306
0.16501327 0.20528781 -0.11074155 -0.1296194 -0.15238374 -0.40534243 -0.35461134 -0.26058242
-0.31344134 -0.30472508 -0.17002892 0.044503868 0.01635724 -0.016086845 0.223233 0.33843738
0.16228475 0.25696674 0.4016087 0.2178229 -0.050690576 0.08047518 -0.021038875 0.13280699
0.420777 0.08356501 0.13889349 0.28444448 -0.022057844 0.028577216 0.016047884 -0.044804256
-0.05203027 -0.2389074 -0.33072785 -0.17717682 -0.36423683 -0.3125088 0.23073925 0.40233698
0.23174505 0.31328046 0.38667786 0.1235666 0.12258773 0.055920422 -0.0914284 -0.025119495
-0.19083063 -0.19161253 -0.18603072 -0.5222065 -0.3707913 -0.08472557 -0.2415329 -0.17363615
