data/encoder_weights.pth (torch, 423704 bytes, 6 tensors)

encoder.0.weight f4 [16, 1, 3, 3]
0	0xbf0c5985	-0.54824096
1	0xbeee3988	-0.46528268
2	0xbf038df1	-0.5138846
3	0xbde02dc5	-0.1094623
4	0xbe9e8b40	-0.30965614
5	0xbb7afd59	-0.003829798
6	0x3f0081c9	0.50198036
7	0x3e9f0117	0.3105552
8	0x3f3449ea	0.70425284
9	0xbe18eef9	-0.14934911
10	0xbf1a6cc9	-0.6032224
11	0xbf34fcbd	-0.7069815
12	0x3eeb4c36	0.45956582
13	0xbde6f1fc	-0.112766236
14	0xbf0db0a0	-0.55347633
15	0x3f3899b3	0.72109526
16	0x3f155586	0.58333623
17	0x3e5a2c3f	0.21305941
18	0xbf2379bc	-0.63857627
19	0xbe4f10e6	-0.2022129
20	0xbca32afc	-0.019917957
21	0xbe5840a7	-0.21118413
22	0x3e1ee25f	0.15516041
23	0x3dc51f9c	0.0962517
24	0x3e89f442	0.26944166
25	0x3f3d1b5f	0.7386989
26	0x3ef1ef99	0.4725311
27	0xbed67552	-0.41886383
28	0x3f0ae30d	0.542527
29	0x3e37c89b	0.17947619
30	0x3edc9e1d	0.4308938
31	0x3f03c27f	0.5146865
32	0x3e1703f2	0.14747599
33	0xbe5e5a86	-0.2171422
34	0x3e3d96a3	0.18514495
35	0xbcee400a	-0.02908327
36	0xbc8a0fd3	-0.016853249
37	0xbed37c86	-0.4130594
38	0xbd90979d	-0.07060168
39	0x3f4693e4	0.77569413
40	0x3e35c0f1	0.17749383
41	0x3eb2fae3	0.34957036
42	0x3f176173	0.5913307
43	0x3eee0316	0.4648673
44	0xbf0029d1	-0.50063807
45	0xbd3bef20	-0.045882344
46	0x3e07f1df	0.1327586
47	0xbec39afe	-0.38204187
48	0x3dbc67d9	0.09199495
49	0x3e4ca1ec	0.19983643
50	0xbc0bc9cb	-0.008531998
51	0x3ed8a5e9	0.4231408
52	0x3f23ef74	0.6403725
53	0xbe0746b6	-0.13210568
54	0x3e613a0f	0.21994804
55	0x3bbbdf4e	0.005733407
56	0xbdbe1cc9	-0.09282834
57	0x3cf10b01	0.029424192
58	0x3f3ccc42	0.7374917
59	0xbe0b4f2c	-0.1360442
60	0xbec8c931	-0.39215997
61	0x3db409ca	0.087909296
62	0xbe0c4478	-0.13697994
63	0xbeaa788b	-0.33295092
64	0x3da73fa1	0.08166433
65	0x3e228f10	0.15874887
66	0x3d955ec0	0.07293463
67	0x3e6845a6	0.22682819
68	0xbe287f35	-0.16454776
69	0x3d9943eb	0.074836574
70	0x3e570d21	0.21001102
71	0xbeb1b2d8	-0.3470676
72	0x3e364718	0.17800558
73	0x3d84d0c1	0.06485129
74	0xbf06df8f	-0.52684873
75	0x3f3268f8	0.6969142
76	0x3ec8c7b9	0.39214876
77	0xbec7e108	-0.39038873
78	0x3ec11e4f	0.37718436
79	0xbcb9d8cc	-0.022686385
80	0x3e812e1b	0.25230488
81	0x3e5698eb	0.20956771
82	0xbe583b4d	-0.21116371
83	0xbf271a19	-0.65274197
84	0x3d11be6c	0.03558199
85	0xbf8d6a24	-1.1048017
86	0x3e922eb0	0.28551245
87	0xbf055b09	-0.52092034
88	0xbe9eebf2	-0.31039387
89	0x3f390776	0.7227701
90	0x3e6b1388	0.2295667
91	0x3efbbee4	0.49169075
92	0x3e91ab7f	0.28451154
93	0x3ea28cf4	0.31748164
94	0x3b87bbb5	0.0041422495
95	0xbf1b3e68	-0.606421
96	0x3e7b2f91	0.24529864
97	0xbd2fd8da	-0.042931415
98	0xbf32de16	-0.69870126
99	0xbc33f62c	-0.010983985
100	0xbeabb238	-0.33534408
101	0x3e5024d2	0.20326546
102	0x3d805781	0.0626669
103	0x3f22802e	0.63476837
104	0x3f0c5527	0.5481743
105	0xbec52fec	-0.38513124
106	0x3ee9a5ac	0.4563421
107	0xbcc644b8	-0.02420269
108	0xbdd15008	-0.10220343
109	0xbdf8fcd2	-0.12157597
110	0xbf0c454c	-0.5479324
111	0x3e45f939	0.19333352
112	0x3f13f055	0.5778859
113	0x3e786009	0.24255385
114	0xbee61bbe	-0.4494304
115	0x3e22eb20	0.15910006
116	0x3ea682c5	0.32521644
117	0x3d8acdc1	0.06777526
118	0x3e8bb647	0.27287504
119	0x3eb3f0b8	0.3514459
120	0xbddf256c	-0.108958095
121	0x3ca5db29	0.020246105
122	0x3ecef0b9	0.40418032
123	0xbed1143a	-0.40835744
124	0xbeeb91be	-0.4600963
125	0x3e19aeef	0.15008138
126	0x3eeff6e8	0.46868062
127	0xbee83d04	-0.4535905
128	0xbf530ffd	-0.8244627
129	0x3f1666c5	0.58750564
130	0xbf0050e7	-0.5012345
131	0xbf0edfde	-0.55810344
132	0x3e87ca0d	0.2652134
133	0x3dfaf61c	0.12253973
134	0xbe9135f8	-0.28361487
135	0x3e8e97f6	0.27850312
136	0x3ef737c2	0.48284727
137	0xbecf4dfb	-0.40489182
138	0x3e7cede2	0.2470012
139	0x3f122877	0.57092994
140	0x3ce7d487	0.028299583
141	0x3dd519ec	0.10405335
142	0xbd925503	-0.07145121
143	0xbd52fc1a	-0.051509954

encoder.0.bias f4 [16]
0	0x3e18e007	0.1492921
1	0x3dba348a	0.09092052
2	0xbbbcb66b	-0.0057590506
3	0x3c32898c	0.010897052
4	0x3c81ed3f	0.015860198
5	0xbd35971b	-0.04433356
6	0xbd0c1e91	-0.034208838
7	0xbcc2ff05	-0.023803243
8	0xbd2ab02b	-0.041671913
9	0x3e680b2d	0.22660513
10	0xbbf45d0e	-0.007457382
11	0xbcb2816b	-0.021790227
12	0x3bfeda71	0.007777505
13	0x3c05d51b	0.008168484
14	0x3dd92e15	0.106044926
15	0xbddf9bf1	-0.10918415

encoder.2.weight f4 [32, 16, 3, 3]
0	0xbdbbcedb	-0.09170314
1	0xbcc7b751	-0.024379404
2	0xbdf7a747	-0.120924525
3	0xbc61cf73	-0.01378237
4	0xbdb35129	-0.087557144
5	0x3d19dbd7	0.03756317
6	0x3bcb8e3b	0.0062120236
7	0x3c3fc3e2	0.011704417
8	0xbdb0c354	-0.08631006
9	0xbcfc8c2f	-0.030828563
10	0xbdab3c49	-0.08361108
11	0xbced29b9	-0.028950559
12	0xbd6f13c7	-0.05836847
13	0xbdabde1c	-0.083919734
14	0xbd46b7fe	-0.048515312
15	0xbdd0b600	-0.10190964
16	0xbdbb4528	-0.0914405
17	0x3d8f2a6b	0.069905125
18	0xbd3c2db3	-0.04594202
19	0x3c18a374	0.009316314
20	0xbc25367a	-0.010083789
21	0xbd357461	-0.04430044
22	0x3d163732	0.036673732
23	0x3cee3bc4	0.029081233
24	0xbd05ba14	-0.03264816
25	0xbda16e56	-0.07882373
26	0xbd0f35e7	-0.034963515
27	0xbd8c7b3e	-0.06859444
28	0xbba58782	-0.005051554
29	0xbbe4be41	-0.006980688
30	0xbc850c74	-0.01624129
31	0x3cfcd2e0	0.030862272
32	0x3cdf92cb	0.027291676
33	0xbd3967d6	-0.04526504
34	0x3c9a4090	0.018829614
35	0x3c6cfd31	0.014464662
36	0xbd13157b	-0.035909157
37	0xbdbb6b2c	-0.09151301
38	0xbda3cc32	-0.079979315
39	0x3d718c6a	0.0589718
40	0xbc944c53	-0.0181028
41	0x3d4fe9b4	0.050759986
42	0x3d3a9f7e	0.04556226
43	0xbc97745f	-0.018488107
44	0xbdb4fc79	-0.08837218
45	0xbd88f834	-0.06687966
46	0x3caf59f2	0.021405194
47	0xbcf52a47	-0.029927386
48	0xbd06c4dd	-0.032902587
49	0x3d62b7ff	0.055351254
50	0xbb0583d6	-0.002037277
51	0x3d890b75	0.066916384
52	0x3d3377cf	0.04381543
53	0xbd108254	-0.03528054
54	0x3d9409c8	0.07228428
55	0xbd9c358e	-0.07627402
56	0xbd0e014b	-0.0346692
57	0xbd8b514f	-0.06802618
58	0x3d253fd2	0.040344067
59	0xbd9a2331	-0.075262435
60	0xbc82e7ed	-0.015979731
61	0x3a4b6d5b	0.00077601307
62	0xbd846bbf	-0.064658634
63	0x3d03cfa4	0.032180443
64	0x3c970782	0.018436197
65	0x3d833275	0.06406108
66	0xbd06fba8	-0.03295484
67	0xbcb63d30	-0.022245973
68	0xbd0e2c4a	-0.034710206
69	0x3ce1efac	0.027580105
70	0xbd2b11ea	-0.04176513
71	0xbbdb76af	-0.006697498
72	0x3c9deca0	0.01927787
73	0x3b85b843	0.0040808036
74	0x3d910b61	0.070822485
75	0x3cee4464	0.029085346
76	0x3daa8aed	0.08327279
77	0xbcfb9979	-0.03071283
78	0x3ccba46c	0.024858676
79	0xbd5031db	-0.050828796
80	0x3d719f0e	0.058989577
81	0xbc46ea8d	-0.012140882
82	0xbca61697	-0.020274444
83	0x3b6af1ed	0.0035849765
84	0xbdbc4f09	-0.09194762
85	0x3cf5d12f	0.030006973
86	0xbd3091a2	-0.043107636
87	0xbd7eda95	-0.062220175
88	0xbda3cbe7	-0.07997876
89	0xbcff905b	-0.031196764
90	0x3bb7f887	0.0056143436
91	0xbd05aff4	-0.032638505
92	0xbd9f9cd3	-0.07793584
93	0xbcc72906	-0.024311554
94	0x3d1a0955	0.037606556
95	0x3d01ba32	0.03167171
96	0xbdb2d9c0	-0.08732939
97	0xbdc23ed6	-0.09484641
98	0xbda3a3da	-0.079902366
99	0x3d7b0cc2	0.061291464
100	0xbd1b2041	-0.037872557
101	0xbc310df1	-0.010806547
102	0xbbc74690	-0.0060814098
103	0xbccad4c9	-0.024759667
104	0x3ce2b026	0.027671885
105	0xbd8596a2	-0.065228716
106	0xbda24938	-0.079241216
107	0x3d23209a	0.039826013
108	0x3b7f3136	0.0038939244
109	0xbd983e26	-0.07433729
110	0x3c6ce904	0.014459852
111	0x3c1a470e	0.009416355
112	0xbb8267e7	-0.0039796713
113	0xbdfb48a9	-0.12269718
114	0x3d10ae61	0.03532255
115	0xbd7e1bf2	-0.06203837
116	0xbdba6259	-0.091007896
117	0xbdd47fb6	-0.103759214
118	0xbdb548e6	-0.08851795
119	0xbce08197	-0.027405543
120	0xbdc4436b	-0.095831715
121	0xbdba79af	-0.091052406
122	0xbbb5cb87	-0.005547944
123	0xbd8e293c	-0.069414586
124	0xbdbc74b4	-0.09201947
125	0xbdd30676	-0.10303967
126	0xbd319090	-0.043350756
127	0xbd8f3749	-0.06992967
128	0xbc7b8b88	-0.015353091
129	0xbd774e16	-0.060377203
130	0x3d26d7aa	0.040733017
131	0xbd7551c8	-0.059892446
132	0x3c3d520f	0.011555209
133	0xbda65333	-0.08121338
134	0x3bb01768	0.005373884
135	0x3d8d8057	0.069092445
136	0xbbd1d070	-0.0064030215
137	0xbd851191	-0.06497491
138	0xbd648f3e	-0.05580067
139	0xbbf20280	-0.007385552
140	0x3cbcec38	0.023061857
141	0xbd1820d8	-0.037140697
142	0x3d3df15a	0.04637275
143	0xbd8af691	-0.0678531
144	0xbde034ea	-0.109475926
145	0xbeaaad65	-0.33335415
146	0x3d3153de	0.043292873
147	0xbed7926d	-0.42103902
148	0xbe704f0f	-0.23467658
149	0x3e01411e	0.12622496
150	0xbe1d5527	-0.15364514
151	0x3d700b7c	0.058604702
152	0x3ecb0579	0.39652613
153	0xbe2547e1	-0.16140701
154	0xbec67ade	-0.38765615
155	0x3dd02d47	0.10164886
156	0xbe8302cb	-0.25588068
157	0x3f012f2f	0.5046262
158	0x3eebe810	0.46075487
159	0x3e4a79ff	0.197731
160	0x3ea8f998	0.33002925
161	0x3ef96133	0.4870697
162	0x3d82b8d7	0.06382912
163	0x3bd08eca	0.006364678
164	0xbcc25275	-0.02372096
165	0xbe4d8dcd	-0.20073624
166	0xbe9cb78b	-0.30608782
167	0x3bada008	0.005298618
168	0xbd8c9215	-0.068638004
169	0xbddcd28c	-0.10782346
170	0x3e4b18ca	0.19833675
171	0x3c8c6bef	0.01714131
172	0x3d83c176	0.06433384
173	0xbe46b3e9	-0.19404568
174	0x3d9934da	0.07480784
175	0x3d4980d8	0.04919514
176	0x3c54e99c	0.01299515
177	0xbdcece4a	-0.1009794
178	0xbd5f202d	-0.054474045
179	0xbda433e3	-0.08017709
180	0x3e05bd3a	0.13060465
181	0x3d8c8d64	0.068629056
182	0x3b3f92b7	0.0029231736
183	0xbdc9b747	-0.098494105
184	0xbe1d8cd0	-0.15385747
185	0x3dd25ff5	0.102722086
186	0x3d910aaa	0.07082112
187	0xbe738844	-0.2378245
188	0xbe32c1ce	-0.17456743
189	0x3e00dc7d	0.1258411
190	0x3c8c73c3	0.017145043
191	0xbd9c0c45	-0.07619528
192	0x3ba480ab	0.005020221
193	0xbda835a2	-0.08213355
194	0x3e0605d4	0.13088161
195	0x3e0c4c7f	0.13701056
196	0xbb9cac70	-0.0047812983
197	0x3c9d0e29	0.019171791
198	0x3cd4d12c	0.025978647
199	0xbd0a31df	-0.033738967
200	0xbd8086af	-0.06275689
201	0x3d711d82	0.05886603
202	0xbd21ebc1	-0.039531473
203	0x3dc7102c	0.097198814
204	0x3d11051f	0.035405274
205	0xbcff08b0	-0.031132072
206	0xbc1f9484	-0.009739999
207	0x3e1c4c0d	0.15263386
208	0xbca26f84	-0.019828565
209	0xbcc67786	-0.024226915
210	0x3a9cbbd3	0.0011957831
211	0xbd738359	-0.059451435
212	0xbdf7b699	-0.120953746
213	0xbe1b76a4	-0.15181977
214	0xbdf1488a	-0.11781414
215	0xbe3e0989	-0.18558325
216	0xbdc53f45	-0.09631208
217	0x3c972f2c	0.01845511
218	0x3d7b517c	0.061357006
219	0x3d4aa6f0	0.04947561
220	0x3d1d0dac	0.038343117
221	0x3e1223d0	0.14271474
222	0x3dbc43e3	0.09192636
223	0xbc1b3aaf	-0.0094744405
224	0x3d722969	0.059121523
225	0x3d46b845	0.048515577
226	0xbcfb4cbe	-0.030676242
227	0xbe91a8e1	-0.28449157
228	0xbe42cd77	-0.19023691
229	0xbec6346c	-0.3871187
230	0xbf1ad526	-0.6048149
231	0xbe815d91	-0.25266698
232	0xbea1a14f	-0.3156838
233	0xbea90da6	-0.33018225
234	0xbe1633d7	-0.14668213
235	0x3d8f0226	0.06982832
236	0x3e7db170	0.24774718
237	0x3d71f921	0.05907548
238	0xbe6e9a73	-0.23301105
239	0xbdd3b758	-0.103377044
240	0xbdfbc7e3	-0.12293985
241	0xbe0c3425	-0.13691767
242	0xbdc1389f	-0.09434628
243	0x3e1227ac	0.14272946
244	0x3e500ad7	0.20316635
245	0xbea64400	-0.32473755
246	0xbd7fb8af	-0.062431987
247	0x3d831f96	0.06402509
248	0xbd781530	-0.06056708
249	0xbd5cc901	-0.05390263
250	0xbd865327	-0.06558829
251	0xbc6af35c	-0.014340248
252	0xbc987c20	-0.018613875
253	0x3df9922a	0.12186082
254	0xbe774291	-0.24146487
255	0xbd6c0b72	-0.057628103

encoder.2.bias f4 [32]
0	0xbdb455f9	-0.088054605
1	0xbde591eb	-0.11209472
2	0xbcd561cd	-0.026047612
3	0x3d3ef0e2	0.046616443
4	0xbde34558	-0.11097211
5	0xbd09667e	-0.03354501
6	0xbc394d71	-0.011309967
7	0xbd28dae0	-0.04122436
8	0xbe0df1ad	-0.13861723
9	0xbd1ec004	-0.03875734
10	0xbd560c17	-0.052257624
11	0xbe24c6c6	-0.16091451
12	0xbe094cd2	-0.13408211
13	0xbd6cfd74	-0.0578589
14	0xbe0ab17b	-0.13544266
15	0xbdbe238b	-0.09284123
16	0xbe5dd9c2	-0.216651
17	0x3a8b6751	0.0010635649
18	0xbbea30b2	-0.007146918
19	0xbe35cabf	-0.17753123
20	0xbe84aac8	-0.25911546
21	0xbd2c7583	-0.042104255
22	0x3ca93904	0.02065707
23	0xbda887ca	-0.08229025
24	0xbc57bed2	-0.013168054
25	0xbe025f37	-0.12731634
26	0xbd1a456d	-0.037663866
27	0xbdfc4d2b	-0.12319406
28	0xbde0fe64	-0.10986021
29	0xbd78a008	-0.060699493
30	0x3a635d25	0.00086732424
31	0xbd1d22a3	-0.03836311

encoder.4.weight f4 [64, 32, 7, 7]
0	0x3c521bf8	0.012824051
1	0x3c8fb5da	0.017542768
2	0x3a8daf60	0.0010809712
3	0x3ca602b2	0.020264957
4	0xbc76d4e5	-0.015065406
5	0x3ad49590	0.001621889
6	0xbc78e0e6	-0.015190339
7	0x3c2e8eec	0.010654192
8	0xbc817396	-0.015802186
9	0x3cbec196	0.023285668
10	0x3c8124d0	0.015764624
11	0x3cccec2e	0.025014963
12	0xba35cea0	-0.00069353916
13	0xbcb5f45e	-0.02221125
14	0xba79c4e0	-0.0009527933
15	0x3cbad400	0.022806168
16	0x3be58fe0	0.0070056766
17	0xbba57708	-0.00504959
18	0xbac50350	-0.0015030894
19	0x3c3c8940	0.011507332
20	0x3cc01c74	0.023451068
21	0x3ce42394	0.027848996
22	0xbb921a27	-0.004458684
23	0xbc05b917	-0.008161805
24	0xbbfecfdc	-0.0077762436
25	0x3b5e7a90	0.0033947565
26	0x3a797820	0.0009516496
27	0xbc73f6d4	-0.014890391
28	0x3c722344	0.014778916
29	0x3c91c6cd	0.01779499
30	0xbc758980	-0.014986396
31	0x3bc2f62c	0.005949756
32	0x3a30a7c0	0.0006738864
33	0xbc40e90f	-0.0117743155
34	0xbc8df4ec	-0.017328702
35	0xbb878357	-0.00413553
36	0x3cc75ef4	0.02433727
37	0xbc57001c	-0.013122585
38	0xbc8dee41	-0.017325522
39	0xbc4270ae	-0.011867685
40	0x3c803c32	0.015653703
41	0x3c65a580	0.014016509
42	0xbc977140	-0.018486619
43	0xbcb315a9	-0.021860914
44	0xbcac540d	-0.021036172
45	0x3aba2774	0.0014202432
46	0xbba27537	-0.0049578208
47	0xbc3591f8	-0.011082165
48	0x3c07ab84	0.008280639
49	0x3cfda8f2	0.030964348
50	0x3cc24f11	0.023719342
51	0x3d05488f	0.0325399
52	0xbd24d055	-0.040237743
53	0xbd44fe4e	-0.048094086
54	0x3de2f5cf	0.110820405
55	0xbbbe9cee	-0.0058170473
56	0x3da5c289	0.08093745
57	0x3e464fbb	0.19366352
58	0x3d8e64dc	0.06952831
59	0xbdcfa6b5	-0.10139219
60	0x3e8ed5d9	0.27897528
61	0x3c779395	0.01511087
62	0xbe3393d1	-0.17536856
63	0xbd907a6a	-0.07054599
64	0x3df300a4	0.118653566
65	0xbdc58e31	-0.096462615
66	0xbeb92b1c	-0.36165702
67	0xbe05624f	-0.13025783
68	0xbe2ee030	-0.17077708
69	0x3e35212e	0.17688438
70	0x3d42f962	0.04760111
71	0xbdef6ce4	-0.11690691
72	0xbe48ba04	-0.1960221
73	0x3de9e431	0.11420477
74	0x3d0e3108	0.03471473
75	0xbd1a6bef	-0.03770059
76	0xbd7d46d8	-0.06183514
77	0xbe292cfa	-0.16521063
78	0xbe54a591	-0.20766284
79	0xbdb2ca4c	-0.08729991
80	0x3e370f6f	0.17876981
81	0x3db84d80	0.08999157
82	0x3dea2eff	0.11434745
83	0x3db8da73	0.09026041
84	0x3d100b62	0.035167105
85	0x3d0dc518	0.03461179
86	0x3b6af5e8	0.0035852138
87	0x3d599e37	0.0531294
88	0x3d54a390	0.051913798
89	0x3d1c41bf	0.038148638
90	0xbdf10167	-0.117678456
91	0x3b34f747	0.002761321
92	0xbdbec504	-0.093149215
93	0x3bc8fcc2	0.0061336467
94	0xbe070be8	-0.13188136
95	0x3e0b144a	0.13581958
96	0x3d348702	0.044074066
97	0xbd074eb7	-0.033034053
98	0xbc28e356	-0.010308107
99	0xbcbc4376	-0.022981387
100	0xbd62a139	-0.055329535
101	0xbe0e59ca	-0.1390144
102	0xbd8cdd16	-0.06878106
103	0x3cf8565f	0.030314622
104	0x3df58e27	0.11990004
105	0xbdf323ba	-0.11872049
106	0xbd515b48	-0.051112443
107	0xbe0efbe3	-0.13963275
108	0x3e88b5cf	0.2670121
109	0xbc9e47bf	-0.01932132
110	0xbd26daf9	-0.040736172
111	0x3c3bef99	0.011470699
112	0xbd17b348	-0.03703621
113	0xbd91f379	-0.07126517
114	0x3e186e0b	0.14885728
115	0x3f34b1dc	0.7058389
116	0x3e1a64bd	0.15077491
117	0x3d423124	0.047410145
118	0xbd999f2b	-0.07501062
119	0x3c95e371	0.01829693
120	0xbe2e92e2	-0.17048219
121	0xbd939bce	-0.07207452
122	0x3cba97d5	0.022777477
123	0xbe5062d5	-0.20350201
124	0x3cc202be	0.023682948
125	0xbc98bde8	-0.018645242
126	0x3dd38da0	0.10329747
127	0x3d1bcc00	0.038036346
128	0xbddb4e54	-0.10708299
129	0x3e231dc0	0.15929317
130	0xbe644120	-0.22290468
131	0xbd2190f3	-0.039444875
132	0xbc5113dc	-0.0127610825
133	0x3d242de5	0.04008283
134	0xbd798702	-0.06091977
135	0xbeaeb4af	-0.34122226
136	0x3e9871c4	0.29774296
137	0xbd846ca3	-0.06466033
138	0x3cc40dbc	0.02393233
139	0xbd825231	-0.06363333
140	0xbd78a436	-0.06070348
141	0xbd8d9eb0	-0.06915033
142	0xbe6e92b7	-0.23298155
143	0x3de092b8	0.109654844
144	0x3db7df11	0.089780934
145	0xbc1e450c	-0.009660017
146	0xbc886c36	-0.016653161
147	0xbb2afba1	-0.0026089924
148	0xbc096bf8	-0.008387558
149	0x3bee4eb4	0.0072725657
150	0x3b78fe1d	0.003799326
151	0xbd3d20dd	-0.04617392
152	0xbc4def9e	-0.012569336
153	0x3bd18b2b	0.006394764
154	0x3ca795f4	0.020457245
155	0xbd9ad99d	-0.07561038
156	0xbcae127f	-0.021249054
157	0x3d4a9cae	0.049465828
158	0x3e54c212	0.20777157
159	0x3d283593	0.041066717
160	0xbdaf0a77	-0.08546918
161	0x3d8b6357	0.06806057
162	0xbd63e29b	-0.05563603
163	0xbd38b96f	-0.04509872
164	0xbc030ba7	-0.007998384
165	0x3ef04543	0.46927842
166	0x3e3c621f	0.18396805
167	0xbdad2004	-0.08453372
168	0xbd89674f	-0.06709158
169	0xbde8ea0c	-0.11372766
170	0x3ba634a9	0.0050721955
171	0xbe07224f	-0.13196681
172	0x3e1c1077	0.15240656
173	0xbd5d00f9	-0.053956006
174	0x3d6c47e7	0.05768576
175	0x3d842ceb	0.0645388
176	0xbe20b3eb	-0.15693633
177	0xbd2ea04a	-0.042633332
178	0x3cca5e42	0.024703149
179	0x3d039614	0.032125548
180	0x3ca83ecf	0.020537762
181	0x3e18b013	0.14910917
182	0xbd7d6bd6	-0.06187042
183	0xbe13ba27	-0.1442648
184	0xbdc122a0	-0.09430432
185	0x3e0d7ebe	0.1381788
186	0xbd1e28c4	-0.038613096
187	0xbe6a0280	-0.22852516
188	0xbdf6b9ce	-0.12047158
189	0xbd0e8406	-0.034793876
190	0xbccb4279	-0.02481197
191	0x3e0ca04d	0.13733025
192	0x3d7d804f	0.061889943
193	0x3dba0a3c	0.09083983
194	0x3deba2cb	0.1150566
195	0x3dcec219	0.10095615
196	0xbcef3d3c	-0.029204004
197	0xbdb29cdf	-0.08721327
198	0xbd2b3fbb	-0.041808825
199	0x3ce36ecf	0.027762799
200	0x3c803339	0.015649425
201	0x3e204b8e	0.15653822
202	0xba8fbbf9	-0.0010966054
203	0xbd065aaa	-0.032801308
204	0x37f13db0	2.8758164e-05
205	0xbcdb9712	-0.026805434
206	0xbdbf84d6	-0.09351508
207	0xbde69aef	-0.1126002
208	0x3d08f793	0.03343923
209	0xbdc5b44c	-0.096535295
210	0xbc380977	-0.011232725
211	0xbe03b9c8	-0.12863839
212	0xbda5dbbc	-0.08098552
213	0xbd8aafc2	-0.067718044
214	0x3e1c20f6	0.15246949
215	0x3edd906e	0.43274254
216	0x3ce89809	0.028392809
217	0xbc8ab829	-0.016933518
218	0xbd3b1d37	-0.04568216
219	0x3d715235	0.05891629
220	0x3d686a6c	0.056742117
221	0x3e70d4a8	0.23518622
222	0xbe996da9	-0.29966477
223	0x3de830dc	0.11337444
224	0xba90db91	-0.0011051764
225	0x3cfa1348	0.030526772
226	0xbdd6d39d	-0.10489581
227	0x3cfbd9f4	0.030743577
228	0x3d973665	0.07383422
229	0xbe23e8c2	-0.16006759
230	0x3e010bbd	0.12602134
231	0xbdfbdb5c	-0.12297699
232	0xbe0cabfb	-0.1373748
233	0x3d7a474b	0.061103147
234	0x3d2a44ae	0.041569404
235	0xbd0d29ea	-0.0344638
236	0xbd94cbdc	-0.072654456
237	0xbdf4b222	-0.11948039
238	0x3d13cd55	0.03608449
239	0x3e436116	0.19080004
240	0x3e4c4deb	0.19951598
241	0xbd83a528	-0.064279854
242	0xbdd47d0b	-0.103754126
243	0x3d02f1d9	0.031968925
244	0x3df4e9cb	0.11958655
245	0x3cc5efaf	0.024162142
246	0x3bf667b3	0.007519686
247	0xbdc09e3d	-0.094051816
248	0xbc2f86ff	-0.010713338
249	0x3d8d610b	0.06903275
250	0x3d2608c6	0.04053571
251	0x3da3aa33	0.07991447
252	0x3d10f516	0.035389982
253	0x3df9b476	0.12192623
254	0x3e051921	0.12997867
255	0xbd36ba3f	-0.044611212

encoder.4.bias f4 [64]
0	0xbd27e380	-0.040988445
1	0xba405e2c	-0.00073382515
2	0x3d7578b8	0.05992958
3	0xbd51dda7	-0.051236775
4	0x3c18825e	0.009308426
5	0xbd637bbd	-0.055537928
6	0xbd457641	-0.04820848
7	0xbb94697b	-0.004529176
8	0x3e3fd7cd	0.18734665
9	0xbd150fe9	-0.036392126
10	0xbcc85910	-0.02445653
11	0x3ccdbf3e	0.025115605
12	0xbd10898a	-0.035287417
13	0xbde05466	-0.10953598
14	0x3cdb655b	0.026781728
15	0x3cb716bd	0.02234971
16	0x3d1f51bf	0.03889632
17	0xbcf76875	-0.030201176
18	0xbd01e31a	-0.03171072
19	0xbcdc125a	-0.02686422
20	0x3d26ab14	0.040690497
21	0xbdc9a9f9	-0.09846873
22	0xbc69a7ab	-0.014261167
23	0xbd8c5870	-0.068528056
24	0x3e256a56	0.16153845
25	0x3e0977b6	0.13424572
26	0xbd8d626a	-0.069035366
27	0x3d62e9b7	0.05539867
28	0xbd484beb	-0.048900526
29	0xbdfc0e43	-0.12307408
30	0xbd32ba85	-0.04363491
31	0x3c8ea4d7	0.017412586
32	0x3d825667	0.06364136
33	0x3c9e92a6	0.019357037
34	0xbd48ef09	-0.049056087
35	0xbced39b8	-0.028958187
36	0x3df436dc	0.11924526
37	0x3d7a47e0	0.0611037
38	0xbdfdadb5	-0.123866476
39	0xbe2a1775	-0.1661051
40	0xbcf42601	-0.029803278
41	0x3d9f69a0	0.07783818
42	0xbd9bd338	-0.07608646
43	0x3d217fcc	0.039428517
44	0x3bdf071f	0.006806269
45	0xbc21d44b	-0.009877275
46	0xbda625c5	-0.08112673
47	0x3d816124	0.06317356
48	0x3df14812	0.117813244
49	0x3dbc2cff	0.0918827
50	0x3caff4ac	0.021478973
51	0xbdb78107	-0.08960157
52	0x3d711dd6	0.058866344
53	0xbd43cb90	-0.047801554
54	0x3d6ed454	0.05830796
55	0x3d31a0f5	0.04336639
56	0x3e0d4c1b	0.13798563
57	0x3dfa1c6e	0.12212454
58	0x3cc45270	0.02396509
59	0xbdf5ab12	-0.1199552
60	0x3d893d79	0.06701178
61	0x3d10478f	0.035224494
62	0x3d9f2f84	0.07772735
63	0x3d43ce80	0.047804356
